{"format": "graph-model", "generatedBy": "2.17.0", "convertedBy": "TensorFlow.js Converter v4.22.0", "signature": {"inputs": {"image": {"name": "image:0", "dtype": "DT_FLOAT", "tensorShape": {"dim": [{"size": "-1"}, {"size": "112"}, {"size": "112"}, {"size": "3"}]}}}, "outputs": {"cast_fp32": {"name": "Identity:0", "dtype": "DT_FLOAT", "tensorShape": {"dim": [{"size": "-1"}, {"size": "256"}]}}}}, "modelTopology": {"node": [{"name": "StatefulPartitionedCall/se_mobilefacenet/model/pw_prelu/Neg", "op": "Const", "attr": {"value": {"tensor": {"dtype": "DT_HALF", "tensorShape": {"dim": [{"size": "1"}, {"size": "1"}, {"size": "512"}]}}}, "dtype": {"type": "DT_HALF"}}}, {"name": "StatefulPartitionedCall/se_mobilefacenet/model/stack5_block2_se_prelu/Neg", "op": "Const", "attr": {"value": {"tensor": {"dtype": "DT_HALF", "tensorShape": {"dim": [{"size": "1"}, {"size": "1"}, {"size": "8"}]}}}, "dtype": {"type": "DT_HALF"}}}, {"name": "StatefulPartitionedCall/se_mobilefacenet/model/stack5_block2_2_prelu/Neg", "op": "Const", "attr": {"value": {"tensor": {"dtype": "DT_HALF", "tensorShape": {"dim": [{"size": "1"}, {"size": "1"}, {"size": "256"}]}}}, "dtype": {"type": "DT_HALF"}}}, {"name": "StatefulPartitionedCall/se_mobilefacenet/model/stack5_block2_1_prelu/Neg", "op": "Const", "attr": {"value": {"tensor": {"dtype": "DT_HALF", "tensorShape": {"dim": [{"size": "1"}, {"size": "1"}, {"size": "256"}]}}}, "dtype": {"type": "DT_HALF"}}}, {"name": "StatefulPartitionedCall/se_mobilefacenet/model/stack5_block1_se_prelu/Neg", "op": "Const", "attr": {"value": {"tensor": {"dtype": "DT_HALF", "tensorShape": {"dim": [{"size": "1"}, {"size": "1"}, {"size": "8"}]}}}, "dtype": {"type": "DT_HALF"}}}, {"name": "StatefulPartitionedCall/se_mobilefacenet/model/stack5_block1_2_prelu/Neg", "op": "Const", "attr": {"value": {"tensor": {"dtype": "DT_HALF", "tensorShape": {"dim": [{"size": "1"}, {"size": "1"}, {"size": "256"}]}}}, "dtype": {"type": "DT_HALF"}}}, {"name": "StatefulPartitionedCall/se_mobilefacenet/model/stack5_block1_1_prelu/Neg", "op": "Const", "attr": {"value": {"tensor": {"dtype": "DT_HALF", "tensorShape": {"dim": [{"size": "1"}, {"size": "1"}, {"size": "256"}]}}}, "dtype": {"type": "DT_HALF"}}}, {"name": "StatefulPartitionedCall/se_mobilefacenet/model/stack4_block1_se_prelu/Neg", "op": "Const", "attr": {"value": {"tensor": {"dtype": "DT_HALF", "tensorShape": {"dim": [{"size": "1"}, {"size": "1"}, {"size": "8"}]}}}, "dtype": {"type": "DT_HALF"}}}, {"name": "StatefulPartitionedCall/se_mobilefacenet/model/stack4_block1_2_prelu/Neg", "op": "Const", "attr": {"value": {"tensor": {"dtype": "DT_HALF", "tensorShape": {"dim": [{"size": "1"}, {"size": "1"}, {"size": "512"}]}}}, "dtype": {"type": "DT_HALF"}}}, {"name": "StatefulPartitionedCall/se_mobilefacenet/model/stack4_block1_1_prelu/Neg", "op": "Const", "attr": {"value": {"tensor": {"dtype": "DT_HALF", "tensorShape": {"dim": [{"size": "1"}, {"size": "1"}, {"size": "512"}]}}}, "dtype": {"type": "DT_HALF"}}}, {"name": "StatefulPartitionedCall/se_mobilefacenet/model/stack3_block6_se_prelu/Neg", "op": "Const", "attr": {"value": {"tensor": {"dtype": "DT_HALF", "tensorShape": {"dim": [{"size": "1"}, {"size": "1"}, {"size": "8"}]}}}, "dtype": {"type": "DT_HALF"}}}, {"name": "StatefulPartitionedCall/se_mobilefacenet/model/stack3_block6_2_prelu/Neg", "op": "Const", "attr": {"value": {"tensor": {"dtype": "DT_HALF", "tensorShape": {"dim": [{"size": "1"}, {"size": "1"}, {"size": "256"}]}}}, "dtype": {"type": "DT_HALF"}}}, {"name": "StatefulPartitionedCall/se_mobilefacenet/model/stack3_block6_1_prelu/Neg", "op": "Const", "attr": {"value": {"tensor": {"dtype": "DT_HALF", "tensorShape": {"dim": [{"size": "1"}, {"size": "1"}, {"size": "256"}]}}}, "dtype": {"type": "DT_HALF"}}}, {"name": "StatefulPartitionedCall/se_mobilefacenet/model/stack3_block5_se_prelu/Neg", "op": "Const", "attr": {"value": {"tensor": {"dtype": "DT_HALF", "tensorShape": {"dim": [{"size": "1"}, {"size": "1"}, {"size": "8"}]}}}, "dtype": {"type": "DT_HALF"}}}, {"name": "StatefulPartitionedCall/se_mobilefacenet/model/stack3_block5_2_prelu/Neg", "op": "Const", "attr": {"value": {"tensor": {"dtype": "DT_HALF", "tensorShape": {"dim": [{"size": "1"}, {"size": "1"}, {"size": "256"}]}}}, "dtype": {"type": "DT_HALF"}}}, {"name": "StatefulPartitionedCall/se_mobilefacenet/model/stack3_block5_1_prelu/Neg", "op": "Const", "attr": {"value": {"tensor": {"dtype": "DT_HALF", "tensorShape": {"dim": [{"size": "1"}, {"size": "1"}, {"size": "256"}]}}}, "dtype": {"type": "DT_HALF"}}}, {"name": "StatefulPartitionedCall/se_mobilefacenet/model/stack3_block4_se_prelu/Neg", "op": "Const", "attr": {"value": {"tensor": {"dtype": "DT_HALF", "tensorShape": {"dim": [{"size": "1"}, {"size": "1"}, {"size": "8"}]}}}, "dtype": {"type": "DT_HALF"}}}, {"name": "StatefulPartitionedCall/se_mobilefacenet/model/stack3_block4_2_prelu/Neg", "op": "Const", "attr": {"value": {"tensor": {"dtype": "DT_HALF", "tensorShape": {"dim": [{"size": "1"}, {"size": "1"}, {"size": "256"}]}}}, "dtype": {"type": "DT_HALF"}}}, {"name": "StatefulPartitionedCall/se_mobilefacenet/model/stack3_block4_1_prelu/Neg", "op": "Const", "attr": {"value": {"tensor": {"dtype": "DT_HALF", "tensorShape": {"dim": [{"size": "1"}, {"size": "1"}, {"size": "256"}]}}}, "dtype": {"type": "DT_HALF"}}}, {"name": "StatefulPartitionedCall/se_mobilefacenet/model/stack3_block3_se_prelu/Neg", "op": "Const", "attr": {"value": {"tensor": {"dtype": "DT_HALF", "tensorShape": {"dim": [{"size": "1"}, {"size": "1"}, {"size": "8"}]}}}, "dtype": {"type": "DT_HALF"}}}, {"name": "StatefulPartitionedCall/se_mobilefacenet/model/stack3_block3_2_prelu/Neg", "op": "Const", "attr": {"value": {"tensor": {"dtype": "DT_HALF", "tensorShape": {"dim": [{"size": "1"}, {"size": "1"}, {"size": "256"}]}}}, "dtype": {"type": "DT_HALF"}}}, {"name": "StatefulPartitionedCall/se_mobilefacenet/model/stack3_block3_1_prelu/Neg", "op": "Const", "attr": {"value": {"tensor": {"dtype": "DT_HALF", "tensorShape": {"dim": [{"size": "1"}, {"size": "1"}, {"size": "256"}]}}}, "dtype": {"type": "DT_HALF"}}}, {"name": "StatefulPartitionedCall/se_mobilefacenet/model/stack3_block2_se_prelu/Neg", "op": "Const", "attr": {"value": {"tensor": {"dtype": "DT_HALF", "tensorShape": {"dim": [{"size": "1"}, {"size": "1"}, {"size": "8"}]}}}, "dtype": {"type": "DT_HALF"}}}, {"name": "StatefulPartitionedCall/se_mobilefacenet/model/stack3_block2_2_prelu/Neg", "op": "Const", "attr": {"value": {"tensor": {"dtype": "DT_HALF", "tensorShape": {"dim": [{"size": "1"}, {"size": "1"}, {"size": "256"}]}}}, "dtype": {"type": "DT_HALF"}}}, {"name": "StatefulPartitionedCall/se_mobilefacenet/model/stack3_block2_1_prelu/Neg", "op": "Const", "attr": {"value": {"tensor": {"dtype": "DT_HALF", "tensorShape": {"dim": [{"size": "1"}, {"size": "1"}, {"size": "256"}]}}}, "dtype": {"type": "DT_HALF"}}}, {"name": "StatefulPartitionedCall/se_mobilefacenet/model/stack3_block1_se_prelu/Neg", "op": "Const", "attr": {"value": {"tensor": {"dtype": "DT_HALF", "tensorShape": {"dim": [{"size": "1"}, {"size": "1"}, {"size": "8"}]}}}, "dtype": {"type": "DT_HALF"}}}, {"name": "StatefulPartitionedCall/se_mobilefacenet/model/stack3_block1_2_prelu/Neg", "op": "Const", "attr": {"value": {"tensor": {"dtype": "DT_HALF", "tensorShape": {"dim": [{"size": "1"}, {"size": "1"}, {"size": "256"}]}}}, "dtype": {"type": "DT_HALF"}}}, {"name": "StatefulPartitionedCall/se_mobilefacenet/model/stack3_block1_1_prelu/Neg", "op": "Const", "attr": {"value": {"tensor": {"dtype": "DT_HALF", "tensorShape": {"dim": [{"size": "1"}, {"size": "1"}, {"size": "256"}]}}}, "dtype": {"type": "DT_HALF"}}}, {"name": "StatefulPartitionedCall/se_mobilefacenet/model/stack2_block1_se_prelu/Neg", "op": "Const", "attr": {"value": {"tensor": {"dtype": "DT_HALF", "tensorShape": {"dim": [{"size": "1"}, {"size": "1"}, {"size": "8"}]}}}, "dtype": {"type": "DT_HALF"}}}, {"name": "StatefulPartitionedCall/se_mobilefacenet/model/stack2_block1_2_prelu/Neg", "op": "Const", "attr": {"value": {"tensor": {"dtype": "DT_HALF", "tensorShape": {"dim": [{"size": "1"}, {"size": "1"}, {"size": "256"}]}}}, "dtype": {"type": "DT_HALF"}}}, {"name": "StatefulPartitionedCall/se_mobilefacenet/model/stack2_block1_1_prelu/Neg", "op": "Const", "attr": {"value": {"tensor": {"dtype": "DT_HALF", "tensorShape": {"dim": [{"size": "1"}, {"size": "1"}, {"size": "256"}]}}}, "dtype": {"type": "DT_HALF"}}}, {"name": "StatefulPartitionedCall/se_mobilefacenet/model/stack1_block5_se_prelu/Neg", "op": "Const", "attr": {"value": {"tensor": {"dtype": "DT_HALF", "tensorShape": {"dim": [{"size": "1"}, {"size": "1"}, {"size": "4"}]}}}, "dtype": {"type": "DT_HALF"}}}, {"name": "StatefulPartitionedCall/se_mobilefacenet/model/stack1_block5_2_prelu/Neg", "op": "Const", "attr": {"value": {"tensor": {"dtype": "DT_HALF", "tensorShape": {"dim": [{"size": "1"}, {"size": "1"}, {"size": "128"}]}}}, "dtype": {"type": "DT_HALF"}}}, {"name": "StatefulPartitionedCall/se_mobilefacenet/model/stack1_block5_1_prelu/Neg", "op": "Const", "attr": {"value": {"tensor": {"dtype": "DT_HALF", "tensorShape": {"dim": [{"size": "1"}, {"size": "1"}, {"size": "128"}]}}}, "dtype": {"type": "DT_HALF"}}}, {"name": "StatefulPartitionedCall/se_mobilefacenet/model/stack1_block4_se_prelu/Neg", "op": "Const", "attr": {"value": {"tensor": {"dtype": "DT_HALF", "tensorShape": {"dim": [{"size": "1"}, {"size": "1"}, {"size": "4"}]}}}, "dtype": {"type": "DT_HALF"}}}, {"name": "StatefulPartitionedCall/se_mobilefacenet/model/stack1_block4_2_prelu/Neg", "op": "Const", "attr": {"value": {"tensor": {"dtype": "DT_HALF", "tensorShape": {"dim": [{"size": "1"}, {"size": "1"}, {"size": "128"}]}}}, "dtype": {"type": "DT_HALF"}}}, {"name": "StatefulPartitionedCall/se_mobilefacenet/model/stack1_block4_1_prelu/Neg", "op": "Const", "attr": {"value": {"tensor": {"dtype": "DT_HALF", "tensorShape": {"dim": [{"size": "1"}, {"size": "1"}, {"size": "128"}]}}}, "dtype": {"type": "DT_HALF"}}}, {"name": "StatefulPartitionedCall/se_mobilefacenet/model/stack1_block3_se_prelu/Neg", "op": "Const", "attr": {"value": {"tensor": {"dtype": "DT_HALF", "tensorShape": {"dim": [{"size": "1"}, {"size": "1"}, {"size": "4"}]}}}, "dtype": {"type": "DT_HALF"}}}, {"name": "StatefulPartitionedCall/se_mobilefacenet/model/stack1_block3_2_prelu/Neg", "op": "Const", "attr": {"value": {"tensor": {"dtype": "DT_HALF", "tensorShape": {"dim": [{"size": "1"}, {"size": "1"}, {"size": "128"}]}}}, "dtype": {"type": "DT_HALF"}}}, {"name": "StatefulPartitionedCall/se_mobilefacenet/model/stack1_block3_1_prelu/Neg", "op": "Const", "attr": {"value": {"tensor": {"dtype": "DT_HALF", "tensorShape": {"dim": [{"size": "1"}, {"size": "1"}, {"size": "128"}]}}}, "dtype": {"type": "DT_HALF"}}}, {"name": "StatefulPartitionedCall/se_mobilefacenet/model/stack1_block2_se_prelu/Neg", "op": "Const", "attr": {"value": {"tensor": {"dtype": "DT_HALF", "tensorShape": {"dim": [{"size": "1"}, {"size": "1"}, {"size": "4"}]}}}, "dtype": {"type": "DT_HALF"}}}, {"name": "StatefulPartitionedCall/se_mobilefacenet/model/stack1_block2_2_prelu/Neg", "op": "Const", "attr": {"value": {"tensor": {"dtype": "DT_HALF", "tensorShape": {"dim": [{"size": "1"}, {"size": "1"}, {"size": "128"}]}}}, "dtype": {"type": "DT_HALF"}}}, {"name": "StatefulPartitionedCall/se_mobilefacenet/model/stack1_block2_1_prelu/Neg", "op": "Const", "attr": {"value": {"tensor": {"dtype": "DT_HALF", "tensorShape": {"dim": [{"size": "1"}, {"size": "1"}, {"size": "128"}]}}}, "dtype": {"type": "DT_HALF"}}}, {"name": "StatefulPartitionedCall/se_mobilefacenet/model/stack1_block1_se_prelu/Neg", "op": "Const", "attr": {"value": {"tensor": {"dtype": "DT_HALF", "tensorShape": {"dim": [{"size": "1"}, {"size": "1"}, {"size": "4"}]}}}, "dtype": {"type": "DT_HALF"}}}, {"name": "StatefulPartitionedCall/se_mobilefacenet/model/stack1_block1_2_prelu/Neg", "op": "Const", "attr": {"value": {"tensor": {"dtype": "DT_HALF", "tensorShape": {"dim": [{"size": "1"}, {"size": "1"}, {"size": "128"}]}}}, "dtype": {"type": "DT_HALF"}}}, {"name": "StatefulPartitionedCall/se_mobilefacenet/model/stack1_block1_1_prelu/Neg", "op": "Const", "attr": {"value": {"tensor": {"dtype": "DT_HALF", "tensorShape": {"dim": [{"size": "1"}, {"size": "1"}, {"size": "128"}]}}}, "dtype": {"type": "DT_HALF"}}}, {"name": "StatefulPartitionedCall/se_mobilefacenet/model/stem_2_prelu/Neg", "op": "Const", "attr": {"value": {"tensor": {"dtype": "DT_HALF", "tensorShape": {"dim": [{"size": "1"}, {"size": "1"}, {"size": "64"}]}}}, "dtype": {"type": "DT_HALF"}}}, {"name": "StatefulPartitionedCall/se_mobilefacenet/model/stem_1_prelu/Neg", "op": "Const", "attr": {"value": {"tensor": {"dtype": "DT_HALF", "tensorShape": {"dim": [{"size": "1"}, {"size": "1"}, {"size": "64"}]}}}, "dtype": {"type": "DT_HALF"}}}, {"name": "StatefulPartitionedCall/se_mobilefacenet/model/stem_2_separable/separable_conv2d/Cast", "op": "Const", "attr": {"value": {"tensor": {"dtype": "DT_HALF", "tensorShape": {"dim": [{"size": "3"}, {"size": "3"}, {"size": "64"}, {"size": "1"}]}}}, "dtype": {"type": "DT_HALF"}}}, {"name": "StatefulPartitionedCall/se_mobilefacenet/model/global_average_pooling2d/Mean/reduction_indices", "op": "Const", "attr": {"value": {"tensor": {"dtype": "DT_INT32", "tensorShape": {"dim": [{"size": "2"}]}}}, "dtype": {"type": "DT_INT32"}}}, {"name": "StatefulPartitionedCall/se_mobilefacenet/model/stack1_block1_se_1_conv/Conv2D/Cast", "op": "Const", "attr": {"value": {"tensor": {"dtype": "DT_HALF", "tensorShape": {"dim": [{"size": "1"}, {"size": "1"}, {"size": "64"}, {"size": "4"}]}}}, "dtype": {"type": "DT_HALF"}}}, {"name": "StatefulPartitionedCall/se_mobilefacenet/model/stack1_block1_se_1_conv/BiasAdd/Cast", "op": "Const", "attr": {"value": {"tensor": {"dtype": "DT_HALF", "tensorShape": {"dim": [{"size": "4"}]}}}, "dtype": {"type": "DT_HALF"}}}, {"name": "StatefulPartitionedCall/se_mobilefacenet/model/stack1_block1_se_2_conv/Conv2D/Cast", "op": "Const", "attr": {"value": {"tensor": {"dtype": "DT_HALF", "tensorShape": {"dim": [{"size": "1"}, {"size": "1"}, {"size": "4"}, {"size": "64"}]}}}, "dtype": {"type": "DT_HALF"}}}, {"name": "StatefulPartitionedCall/se_mobilefacenet/model/stack1_block1_se_2_conv/BiasAdd/Cast", "op": "Const", "attr": {"value": {"tensor": {"dtype": "DT_HALF", "tensorShape": {"dim": [{"size": "64"}]}}}, "dtype": {"type": "DT_HALF"}}}, {"name": "StatefulPartitionedCall/se_mobilefacenet/model/global_average_pooling2d_1/Mean/reduction_indices", "op": "Const", "attr": {"value": {"tensor": {"dtype": "DT_INT32", "tensorShape": {"dim": [{"size": "2"}]}}}, "dtype": {"type": "DT_INT32"}}}, {"name": "StatefulPartitionedCall/se_mobilefacenet/model/stack1_block2_se_1_conv/Conv2D/Cast", "op": "Const", "attr": {"value": {"tensor": {"dtype": "DT_HALF", "tensorShape": {"dim": [{"size": "1"}, {"size": "1"}, {"size": "64"}, {"size": "4"}]}}}, "dtype": {"type": "DT_HALF"}}}, {"name": "StatefulPartitionedCall/se_mobilefacenet/model/stack1_block2_se_1_conv/BiasAdd/Cast", "op": "Const", "attr": {"value": {"tensor": {"dtype": "DT_HALF", "tensorShape": {"dim": [{"size": "4"}]}}}, "dtype": {"type": "DT_HALF"}}}, {"name": "StatefulPartitionedCall/se_mobilefacenet/model/stack1_block2_se_2_conv/Conv2D/Cast", "op": "Const", "attr": {"value": {"tensor": {"dtype": "DT_HALF", "tensorShape": {"dim": [{"size": "1"}, {"size": "1"}, {"size": "4"}, {"size": "64"}]}}}, "dtype": {"type": "DT_HALF"}}}, {"name": "StatefulPartitionedCall/se_mobilefacenet/model/stack1_block2_se_2_conv/BiasAdd/Cast", "op": "Const", "attr": {"value": {"tensor": {"dtype": "DT_HALF", "tensorShape": {"dim": [{"size": "64"}]}}}, "dtype": {"type": "DT_HALF"}}}, {"name": "StatefulPartitionedCall/se_mobilefacenet/model/global_average_pooling2d_2/Mean/reduction_indices", "op": "Const", "attr": {"value": {"tensor": {"dtype": "DT_INT32", "tensorShape": {"dim": [{"size": "2"}]}}}, "dtype": {"type": "DT_INT32"}}}, {"name": "StatefulPartitionedCall/se_mobilefacenet/model/stack1_block3_se_1_conv/Conv2D/Cast", "op": "Const", "attr": {"value": {"tensor": {"dtype": "DT_HALF", "tensorShape": {"dim": [{"size": "1"}, {"size": "1"}, {"size": "64"}, {"size": "4"}]}}}, "dtype": {"type": "DT_HALF"}}}, {"name": "StatefulPartitionedCall/se_mobilefacenet/model/stack1_block3_se_1_conv/BiasAdd/Cast", "op": "Const", "attr": {"value": {"tensor": {"dtype": "DT_HALF", "tensorShape": {"dim": [{"size": "4"}]}}}, "dtype": {"type": "DT_HALF"}}}, {"name": "StatefulPartitionedCall/se_mobilefacenet/model/stack1_block3_se_2_conv/Conv2D/Cast", "op": "Const", "attr": {"value": {"tensor": {"dtype": "DT_HALF", "tensorShape": {"dim": [{"size": "1"}, {"size": "1"}, {"size": "4"}, {"size": "64"}]}}}, "dtype": {"type": "DT_HALF"}}}, {"name": "StatefulPartitionedCall/se_mobilefacenet/model/stack1_block3_se_2_conv/BiasAdd/Cast", "op": "Const", "attr": {"value": {"tensor": {"dtype": "DT_HALF", "tensorShape": {"dim": [{"size": "64"}]}}}, "dtype": {"type": "DT_HALF"}}}, {"name": "StatefulPartitionedCall/se_mobilefacenet/model/global_average_pooling2d_3/Mean/reduction_indices", "op": "Const", "attr": {"value": {"tensor": {"dtype": "DT_INT32", "tensorShape": {"dim": [{"size": "2"}]}}}, "dtype": {"type": "DT_INT32"}}}, {"name": "StatefulPartitionedCall/se_mobilefacenet/model/stack1_block4_se_1_conv/Conv2D/Cast", "op": "Const", "attr": {"value": {"tensor": {"dtype": "DT_HALF", "tensorShape": {"dim": [{"size": "1"}, {"size": "1"}, {"size": "64"}, {"size": "4"}]}}}, "dtype": {"type": "DT_HALF"}}}, {"name": "StatefulPartitionedCall/se_mobilefacenet/model/stack1_block4_se_1_conv/BiasAdd/Cast", "op": "Const", "attr": {"value": {"tensor": {"dtype": "DT_HALF", "tensorShape": {"dim": [{"size": "4"}]}}}, "dtype": {"type": "DT_HALF"}}}, {"name": "StatefulPartitionedCall/se_mobilefacenet/model/stack1_block4_se_2_conv/Conv2D/Cast", "op": "Const", "attr": {"value": {"tensor": {"dtype": "DT_HALF", "tensorShape": {"dim": [{"size": "1"}, {"size": "1"}, {"size": "4"}, {"size": "64"}]}}}, "dtype": {"type": "DT_HALF"}}}, {"name": "StatefulPartitionedCall/se_mobilefacenet/model/stack1_block4_se_2_conv/BiasAdd/Cast", "op": "Const", "attr": {"value": {"tensor": {"dtype": "DT_HALF", "tensorShape": {"dim": [{"size": "64"}]}}}, "dtype": {"type": "DT_HALF"}}}, {"name": "StatefulPartitionedCall/se_mobilefacenet/model/global_average_pooling2d_4/Mean/reduction_indices", "op": "Const", "attr": {"value": {"tensor": {"dtype": "DT_INT32", "tensorShape": {"dim": [{"size": "2"}]}}}, "dtype": {"type": "DT_INT32"}}}, {"name": "StatefulPartitionedCall/se_mobilefacenet/model/stack1_block5_se_1_conv/Conv2D/Cast", "op": "Const", "attr": {"value": {"tensor": {"dtype": "DT_HALF", "tensorShape": {"dim": [{"size": "1"}, {"size": "1"}, {"size": "64"}, {"size": "4"}]}}}, "dtype": {"type": "DT_HALF"}}}, {"name": "StatefulPartitionedCall/se_mobilefacenet/model/stack1_block5_se_1_conv/BiasAdd/Cast", "op": "Const", "attr": {"value": {"tensor": {"dtype": "DT_HALF", "tensorShape": {"dim": [{"size": "4"}]}}}, "dtype": {"type": "DT_HALF"}}}, {"name": "StatefulPartitionedCall/se_mobilefacenet/model/stack1_block5_se_2_conv/Conv2D/Cast", "op": "Const", "attr": {"value": {"tensor": {"dtype": "DT_HALF", "tensorShape": {"dim": [{"size": "1"}, {"size": "1"}, {"size": "4"}, {"size": "64"}]}}}, "dtype": {"type": "DT_HALF"}}}, {"name": "StatefulPartitionedCall/se_mobilefacenet/model/stack1_block5_se_2_conv/BiasAdd/Cast", "op": "Const", "attr": {"value": {"tensor": {"dtype": "DT_HALF", "tensorShape": {"dim": [{"size": "64"}]}}}, "dtype": {"type": "DT_HALF"}}}, {"name": "StatefulPartitionedCall/se_mobilefacenet/model/global_average_pooling2d_5/Mean/reduction_indices", "op": "Const", "attr": {"value": {"tensor": {"dtype": "DT_INT32", "tensorShape": {"dim": [{"size": "2"}]}}}, "dtype": {"type": "DT_INT32"}}}, {"name": "StatefulPartitionedCall/se_mobilefacenet/model/stack2_block1_se_1_conv/Conv2D/Cast", "op": "Const", "attr": {"value": {"tensor": {"dtype": "DT_HALF", "tensorShape": {"dim": [{"size": "1"}, {"size": "1"}, {"size": "128"}, {"size": "8"}]}}}, "dtype": {"type": "DT_HALF"}}}, {"name": "StatefulPartitionedCall/se_mobilefacenet/model/stack2_block1_se_1_conv/BiasAdd/Cast", "op": "Const", "attr": {"value": {"tensor": {"dtype": "DT_HALF", "tensorShape": {"dim": [{"size": "8"}]}}}, "dtype": {"type": "DT_HALF"}}}, {"name": "StatefulPartitionedCall/se_mobilefacenet/model/stack2_block1_se_2_conv/Conv2D/Cast", "op": "Const", "attr": {"value": {"tensor": {"dtype": "DT_HALF", "tensorShape": {"dim": [{"size": "1"}, {"size": "1"}, {"size": "8"}, {"size": "128"}]}}}, "dtype": {"type": "DT_HALF"}}}, {"name": "StatefulPartitionedCall/se_mobilefacenet/model/stack2_block1_se_2_conv/BiasAdd/Cast", "op": "Const", "attr": {"value": {"tensor": {"dtype": "DT_HALF", "tensorShape": {"dim": [{"size": "128"}]}}}, "dtype": {"type": "DT_HALF"}}}, {"name": "StatefulPartitionedCall/se_mobilefacenet/model/global_average_pooling2d_6/Mean/reduction_indices", "op": "Const", "attr": {"value": {"tensor": {"dtype": "DT_INT32", "tensorShape": {"dim": [{"size": "2"}]}}}, "dtype": {"type": "DT_INT32"}}}, {"name": "StatefulPartitionedCall/se_mobilefacenet/model/stack3_block1_se_1_conv/Conv2D/Cast", "op": "Const", "attr": {"value": {"tensor": {"dtype": "DT_HALF", "tensorShape": {"dim": [{"size": "1"}, {"size": "1"}, {"size": "128"}, {"size": "8"}]}}}, "dtype": {"type": "DT_HALF"}}}, {"name": "StatefulPartitionedCall/se_mobilefacenet/model/stack3_block1_se_1_conv/BiasAdd/Cast", "op": "Const", "attr": {"value": {"tensor": {"dtype": "DT_HALF", "tensorShape": {"dim": [{"size": "8"}]}}}, "dtype": {"type": "DT_HALF"}}}, {"name": "StatefulPartitionedCall/se_mobilefacenet/model/stack3_block1_se_2_conv/Conv2D/Cast", "op": "Const", "attr": {"value": {"tensor": {"dtype": "DT_HALF", "tensorShape": {"dim": [{"size": "1"}, {"size": "1"}, {"size": "8"}, {"size": "128"}]}}}, "dtype": {"type": "DT_HALF"}}}, {"name": "StatefulPartitionedCall/se_mobilefacenet/model/stack3_block1_se_2_conv/BiasAdd/Cast", "op": "Const", "attr": {"value": {"tensor": {"dtype": "DT_HALF", "tensorShape": {"dim": [{"size": "128"}]}}}, "dtype": {"type": "DT_HALF"}}}, {"name": "StatefulPartitionedCall/se_mobilefacenet/model/global_average_pooling2d_7/Mean/reduction_indices", "op": "Const", "attr": {"value": {"tensor": {"dtype": "DT_INT32", "tensorShape": {"dim": [{"size": "2"}]}}}, "dtype": {"type": "DT_INT32"}}}, {"name": "StatefulPartitionedCall/se_mobilefacenet/model/stack3_block2_se_1_conv/Conv2D/Cast", "op": "Const", "attr": {"value": {"tensor": {"dtype": "DT_HALF", "tensorShape": {"dim": [{"size": "1"}, {"size": "1"}, {"size": "128"}, {"size": "8"}]}}}, "dtype": {"type": "DT_HALF"}}}, {"name": "StatefulPartitionedCall/se_mobilefacenet/model/stack3_block2_se_1_conv/BiasAdd/Cast", "op": "Const", "attr": {"value": {"tensor": {"dtype": "DT_HALF", "tensorShape": {"dim": [{"size": "8"}]}}}, "dtype": {"type": "DT_HALF"}}}, {"name": "StatefulPartitionedCall/se_mobilefacenet/model/stack3_block2_se_2_conv/Conv2D/Cast", "op": "Const", "attr": {"value": {"tensor": {"dtype": "DT_HALF", "tensorShape": {"dim": [{"size": "1"}, {"size": "1"}, {"size": "8"}, {"size": "128"}]}}}, "dtype": {"type": "DT_HALF"}}}, {"name": "StatefulPartitionedCall/se_mobilefacenet/model/stack3_block2_se_2_conv/BiasAdd/Cast", "op": "Const", "attr": {"value": {"tensor": {"dtype": "DT_HALF", "tensorShape": {"dim": [{"size": "128"}]}}}, "dtype": {"type": "DT_HALF"}}}, {"name": "StatefulPartitionedCall/se_mobilefacenet/model/global_average_pooling2d_8/Mean/reduction_indices", "op": "Const", "attr": {"value": {"tensor": {"dtype": "DT_INT32", "tensorShape": {"dim": [{"size": "2"}]}}}, "dtype": {"type": "DT_INT32"}}}, {"name": "StatefulPartitionedCall/se_mobilefacenet/model/stack3_block3_se_1_conv/Conv2D/Cast", "op": "Const", "attr": {"value": {"tensor": {"dtype": "DT_HALF", "tensorShape": {"dim": [{"size": "1"}, {"size": "1"}, {"size": "128"}, {"size": "8"}]}}}, "dtype": {"type": "DT_HALF"}}}, {"name": "StatefulPartitionedCall/se_mobilefacenet/model/stack3_block3_se_1_conv/BiasAdd/Cast", "op": "Const", "attr": {"value": {"tensor": {"dtype": "DT_HALF", "tensorShape": {"dim": [{"size": "8"}]}}}, "dtype": {"type": "DT_HALF"}}}, {"name": "StatefulPartitionedCall/se_mobilefacenet/model/stack3_block3_se_2_conv/Conv2D/Cast", "op": "Const", "attr": {"value": {"tensor": {"dtype": "DT_HALF", "tensorShape": {"dim": [{"size": "1"}, {"size": "1"}, {"size": "8"}, {"size": "128"}]}}}, "dtype": {"type": "DT_HALF"}}}, {"name": "StatefulPartitionedCall/se_mobilefacenet/model/stack3_block3_se_2_conv/BiasAdd/Cast", "op": "Const", "attr": {"value": {"tensor": {"dtype": "DT_HALF", "tensorShape": {"dim": [{"size": "128"}]}}}, "dtype": {"type": "DT_HALF"}}}, {"name": "StatefulPartitionedCall/se_mobilefacenet/model/global_average_pooling2d_9/Mean/reduction_indices", "op": "Const", "attr": {"value": {"tensor": {"dtype": "DT_INT32", "tensorShape": {"dim": [{"size": "2"}]}}}, "dtype": {"type": "DT_INT32"}}}, {"name": "StatefulPartitionedCall/se_mobilefacenet/model/stack3_block4_se_1_conv/Conv2D/Cast", "op": "Const", "attr": {"value": {"tensor": {"dtype": "DT_HALF", "tensorShape": {"dim": [{"size": "1"}, {"size": "1"}, {"size": "128"}, {"size": "8"}]}}}, "dtype": {"type": "DT_HALF"}}}, {"name": "StatefulPartitionedCall/se_mobilefacenet/model/stack3_block4_se_1_conv/BiasAdd/Cast", "op": "Const", "attr": {"value": {"tensor": {"dtype": "DT_HALF", "tensorShape": {"dim": [{"size": "8"}]}}}, "dtype": {"type": "DT_HALF"}}}, {"name": "StatefulPartitionedCall/se_mobilefacenet/model/stack3_block4_se_2_conv/Conv2D/Cast", "op": "Const", "attr": {"value": {"tensor": {"dtype": "DT_HALF", "tensorShape": {"dim": [{"size": "1"}, {"size": "1"}, {"size": "8"}, {"size": "128"}]}}}, "dtype": {"type": "DT_HALF"}}}, {"name": "StatefulPartitionedCall/se_mobilefacenet/model/stack3_block4_se_2_conv/BiasAdd/Cast", "op": "Const", "attr": {"value": {"tensor": {"dtype": "DT_HALF", "tensorShape": {"dim": [{"size": "128"}]}}}, "dtype": {"type": "DT_HALF"}}}, {"name": "StatefulPartitionedCall/se_mobilefacenet/model/global_average_pooling2d_10/Mean/reduction_indices", "op": "Const", "attr": {"value": {"tensor": {"dtype": "DT_INT32", "tensorShape": {"dim": [{"size": "2"}]}}}, "dtype": {"type": "DT_INT32"}}}, {"name": "StatefulPartitionedCall/se_mobilefacenet/model/stack3_block5_se_1_conv/Conv2D/Cast", "op": "Const", "attr": {"value": {"tensor": {"dtype": "DT_HALF", "tensorShape": {"dim": [{"size": "1"}, {"size": "1"}, {"size": "128"}, {"size": "8"}]}}}, "dtype": {"type": "DT_HALF"}}}, {"name": "StatefulPartitionedCall/se_mobilefacenet/model/stack3_block5_se_1_conv/BiasAdd/Cast", "op": "Const", "attr": {"value": {"tensor": {"dtype": "DT_HALF", "tensorShape": {"dim": [{"size": "8"}]}}}, "dtype": {"type": "DT_HALF"}}}, {"name": "StatefulPartitionedCall/se_mobilefacenet/model/stack3_block5_se_2_conv/Conv2D/Cast", "op": "Const", "attr": {"value": {"tensor": {"dtype": "DT_HALF", "tensorShape": {"dim": [{"size": "1"}, {"size": "1"}, {"size": "8"}, {"size": "128"}]}}}, "dtype": {"type": "DT_HALF"}}}, {"name": "StatefulPartitionedCall/se_mobilefacenet/model/stack3_block5_se_2_conv/BiasAdd/Cast", "op": "Const", "attr": {"value": {"tensor": {"dtype": "DT_HALF", "tensorShape": {"dim": [{"size": "128"}]}}}, "dtype": {"type": "DT_HALF"}}}, {"name": "StatefulPartitionedCall/se_mobilefacenet/model/global_average_pooling2d_11/Mean/reduction_indices", "op": "Const", "attr": {"value": {"tensor": {"dtype": "DT_INT32", "tensorShape": {"dim": [{"size": "2"}]}}}, "dtype": {"type": "DT_INT32"}}}, {"name": "StatefulPartitionedCall/se_mobilefacenet/model/stack3_block6_se_1_conv/Conv2D/Cast", "op": "Const", "attr": {"value": {"tensor": {"dtype": "DT_HALF", "tensorShape": {"dim": [{"size": "1"}, {"size": "1"}, {"size": "128"}, {"size": "8"}]}}}, "dtype": {"type": "DT_HALF"}}}, {"name": "StatefulPartitionedCall/se_mobilefacenet/model/stack3_block6_se_1_conv/BiasAdd/Cast", "op": "Const", "attr": {"value": {"tensor": {"dtype": "DT_HALF", "tensorShape": {"dim": [{"size": "8"}]}}}, "dtype": {"type": "DT_HALF"}}}, {"name": "StatefulPartitionedCall/se_mobilefacenet/model/stack3_block6_se_2_conv/Conv2D/Cast", "op": "Const", "attr": {"value": {"tensor": {"dtype": "DT_HALF", "tensorShape": {"dim": [{"size": "1"}, {"size": "1"}, {"size": "8"}, {"size": "128"}]}}}, "dtype": {"type": "DT_HALF"}}}, {"name": "StatefulPartitionedCall/se_mobilefacenet/model/stack3_block6_se_2_conv/BiasAdd/Cast", "op": "Const", "attr": {"value": {"tensor": {"dtype": "DT_HALF", "tensorShape": {"dim": [{"size": "128"}]}}}, "dtype": {"type": "DT_HALF"}}}, {"name": "StatefulPartitionedCall/se_mobilefacenet/model/global_average_pooling2d_12/Mean/reduction_indices", "op": "Const", "attr": {"value": {"tensor": {"dtype": "DT_INT32", "tensorShape": {"dim": [{"size": "2"}]}}}, "dtype": {"type": "DT_INT32"}}}, {"name": "StatefulPartitionedCall/se_mobilefacenet/model/stack4_block1_se_1_conv/Conv2D/Cast", "op": "Const", "attr": {"value": {"tensor": {"dtype": "DT_HALF", "tensorShape": {"dim": [{"size": "1"}, {"size": "1"}, {"size": "128"}, {"size": "8"}]}}}, "dtype": {"type": "DT_HALF"}}}, {"name": "StatefulPartitionedCall/se_mobilefacenet/model/stack4_block1_se_1_conv/BiasAdd/Cast", "op": "Const", "attr": {"value": {"tensor": {"dtype": "DT_HALF", "tensorShape": {"dim": [{"size": "8"}]}}}, "dtype": {"type": "DT_HALF"}}}, {"name": "StatefulPartitionedCall/se_mobilefacenet/model/stack4_block1_se_2_conv/Conv2D/Cast", "op": "Const", "attr": {"value": {"tensor": {"dtype": "DT_HALF", "tensorShape": {"dim": [{"size": "1"}, {"size": "1"}, {"size": "8"}, {"size": "128"}]}}}, "dtype": {"type": "DT_HALF"}}}, {"name": "StatefulPartitionedCall/se_mobilefacenet/model/stack4_block1_se_2_conv/BiasAdd/Cast", "op": "Const", "attr": {"value": {"tensor": {"dtype": "DT_HALF", "tensorShape": {"dim": [{"size": "128"}]}}}, "dtype": {"type": "DT_HALF"}}}, {"name": "StatefulPartitionedCall/se_mobilefacenet/model/global_average_pooling2d_13/Mean/reduction_indices", "op": "Const", "attr": {"value": {"tensor": {"dtype": "DT_INT32", "tensorShape": {"dim": [{"size": "2"}]}}}, "dtype": {"type": "DT_INT32"}}}, {"name": "StatefulPartitionedCall/se_mobilefacenet/model/stack5_block1_se_1_conv/Conv2D/Cast", "op": "Const", "attr": {"value": {"tensor": {"dtype": "DT_HALF", "tensorShape": {"dim": [{"size": "1"}, {"size": "1"}, {"size": "128"}, {"size": "8"}]}}}, "dtype": {"type": "DT_HALF"}}}, {"name": "StatefulPartitionedCall/se_mobilefacenet/model/stack5_block1_se_1_conv/BiasAdd/Cast", "op": "Const", "attr": {"value": {"tensor": {"dtype": "DT_HALF", "tensorShape": {"dim": [{"size": "8"}]}}}, "dtype": {"type": "DT_HALF"}}}, {"name": "StatefulPartitionedCall/se_mobilefacenet/model/stack5_block1_se_2_conv/Conv2D/Cast", "op": "Const", "attr": {"value": {"tensor": {"dtype": "DT_HALF", "tensorShape": {"dim": [{"size": "1"}, {"size": "1"}, {"size": "8"}, {"size": "128"}]}}}, "dtype": {"type": "DT_HALF"}}}, {"name": "StatefulPartitionedCall/se_mobilefacenet/model/stack5_block1_se_2_conv/BiasAdd/Cast", "op": "Const", "attr": {"value": {"tensor": {"dtype": "DT_HALF", "tensorShape": {"dim": [{"size": "128"}]}}}, "dtype": {"type": "DT_HALF"}}}, {"name": "StatefulPartitionedCall/se_mobilefacenet/model/global_average_pooling2d_14/Mean/reduction_indices", "op": "Const", "attr": {"value": {"tensor": {"dtype": "DT_INT32", "tensorShape": {"dim": [{"size": "2"}]}}}, "dtype": {"type": "DT_INT32"}}}, {"name": "StatefulPartitionedCall/se_mobilefacenet/model/stack5_block2_se_1_conv/Conv2D/Cast", "op": "Const", "attr": {"value": {"tensor": {"dtype": "DT_HALF", "tensorShape": {"dim": [{"size": "1"}, {"size": "1"}, {"size": "128"}, {"size": "8"}]}}}, "dtype": {"type": "DT_HALF"}}}, {"name": "StatefulPartitionedCall/se_mobilefacenet/model/stack5_block2_se_1_conv/BiasAdd/Cast", "op": "Const", "attr": {"value": {"tensor": {"dtype": "DT_HALF", "tensorShape": {"dim": [{"size": "8"}]}}}, "dtype": {"type": "DT_HALF"}}}, {"name": "StatefulPartitionedCall/se_mobilefacenet/model/stack5_block2_se_2_conv/Conv2D/Cast", "op": "Const", "attr": {"value": {"tensor": {"dtype": "DT_HALF", "tensorShape": {"dim": [{"size": "1"}, {"size": "1"}, {"size": "8"}, {"size": "128"}]}}}, "dtype": {"type": "DT_HALF"}}}, {"name": "StatefulPartitionedCall/se_mobilefacenet/model/stack5_block2_se_2_conv/BiasAdd/Cast", "op": "Const", "attr": {"value": {"tensor": {"dtype": "DT_HALF", "tensorShape": {"dim": [{"size": "128"}]}}}, "dtype": {"type": "DT_HALF"}}}, {"name": "StatefulPartitionedCall/se_mobilefacenet/model/GDC_conv/Conv2D/Cast", "op": "Const", "attr": {"value": {"tensor": {"dtype": "DT_HALF", "tensorShape": {"dim": [{"size": "1"}, {"size": "1"}, {"size": "512"}, {"size": "256"}]}}}, "dtype": {"type": "DT_HALF"}}}, {"name": "StatefulPartitionedCall/se_mobilefacenet/model/GDC_flatten/Const", "op": "Const", "attr": {"value": {"tensor": {"dtype": "DT_INT32", "tensorShape": {"dim": [{"size": "2"}]}}}, "dtype": {"type": "DT_INT32"}}}, {"name": "StatefulPartitionedCall/se_mobilefacenet/model/pre_embedding/batchnorm/mul", "op": "Const", "attr": {"value": {"tensor": {"dtype": "DT_FLOAT", "tensorShape": {"dim": [{"size": "256"}]}}}, "dtype": {"type": "DT_FLOAT"}}}, {"name": "StatefulPartitionedCall/se_mobilefacenet/model/pre_embedding/batchnorm/sub", "op": "Const", "attr": {"value": {"tensor": {"dtype": "DT_FLOAT", "tensorShape": {"dim": [{"size": "256"}]}}}, "dtype": {"type": "DT_FLOAT"}}}, {"name": "image", "op": "Placeholder", "attr": {"shape": {"shape": {"dim": [{"size": "-1"}, {"size": "112"}, {"size": "112"}, {"size": "3"}]}}, "dtype": {"type": "DT_FLOAT"}}}, {"name": "StatefulPartitionedCall/se_mobilefacenet/model/stem_1_conv/Conv2D_weights", "op": "Const", "attr": {"value": {"tensor": {"dtype": "DT_HALF", "tensorShape": {"dim": [{"size": "3"}, {"size": "3"}, {"size": "3"}, {"size": "64"}]}}}, "dtype": {"type": "DT_HALF"}}}, {"name": "StatefulPartitionedCall/se_mobilefacenet/model/stem_1_conv/Conv2D_bn_offset", "op": "Const", "attr": {"value": {"tensor": {"dtype": "DT_FLOAT", "tensorShape": {"dim": [{"size": "64"}]}}}, "dtype": {"type": "DT_FLOAT"}}}, {"name": "StatefulPartitionedCall/se_mobilefacenet/model/stem_2_separable/separable_conv2d_weights", "op": "Const", "attr": {"value": {"tensor": {"dtype": "DT_HALF", "tensorShape": {"dim": [{"size": "1"}, {"size": "1"}, {"size": "64"}, {"size": "64"}]}}}, "dtype": {"type": "DT_HALF"}}}, {"name": "StatefulPartitionedCall/se_mobilefacenet/model/stem_2_separable/separable_conv2d_bn_offset", "op": "Const", "attr": {"value": {"tensor": {"dtype": "DT_FLOAT", "tensorShape": {"dim": [{"size": "64"}]}}}, "dtype": {"type": "DT_FLOAT"}}}, {"name": "StatefulPartitionedCall/se_mobilefacenet/model/stack1_block1_1_conv/Conv2D_weights", "op": "Const", "attr": {"value": {"tensor": {"dtype": "DT_HALF", "tensorShape": {"dim": [{"size": "1"}, {"size": "1"}, {"size": "64"}, {"size": "128"}]}}}, "dtype": {"type": "DT_HALF"}}}, {"name": "StatefulPartitionedCall/se_mobilefacenet/model/stack1_block1_1_conv/Conv2D_bn_offset", "op": "Const", "attr": {"value": {"tensor": {"dtype": "DT_FLOAT", "tensorShape": {"dim": [{"size": "128"}]}}}, "dtype": {"type": "DT_FLOAT"}}}, {"name": "StatefulPartitionedCall/se_mobilefacenet/model/stack1_block1_2_depthwise/depthwise_weights", "op": "Const", "attr": {"value": {"tensor": {"dtype": "DT_HALF", "tensorShape": {"dim": [{"size": "3"}, {"size": "3"}, {"size": "128"}, {"size": "1"}]}}}, "dtype": {"type": "DT_HALF"}}}, {"name": "StatefulPartitionedCall/se_mobilefacenet/model/stack1_block1_2_depthwise/depthwise_bn_offset", "op": "Const", "attr": {"value": {"tensor": {"dtype": "DT_FLOAT", "tensorShape": {"dim": [{"size": "128"}]}}}, "dtype": {"type": "DT_FLOAT"}}}, {"name": "StatefulPartitionedCall/se_mobilefacenet/model/stack1_block1_3_conv/Conv2D_weights", "op": "Const", "attr": {"value": {"tensor": {"dtype": "DT_HALF", "tensorShape": {"dim": [{"size": "1"}, {"size": "1"}, {"size": "128"}, {"size": "64"}]}}}, "dtype": {"type": "DT_HALF"}}}, {"name": "StatefulPartitionedCall/se_mobilefacenet/model/stack1_block1_3_conv/Conv2D_bn_offset", "op": "Const", "attr": {"value": {"tensor": {"dtype": "DT_FLOAT", "tensorShape": {"dim": [{"size": "64"}]}}}, "dtype": {"type": "DT_FLOAT"}}}, {"name": "StatefulPartitionedCall/se_mobilefacenet/model/stack1_block2_1_conv/Conv2D_weights", "op": "Const", "attr": {"value": {"tensor": {"dtype": "DT_HALF", "tensorShape": {"dim": [{"size": "1"}, {"size": "1"}, {"size": "64"}, {"size": "128"}]}}}, "dtype": {"type": "DT_HALF"}}}, {"name": "StatefulPartitionedCall/se_mobilefacenet/model/stack1_block2_1_conv/Conv2D_bn_offset", "op": "Const", "attr": {"value": {"tensor": {"dtype": "DT_FLOAT", "tensorShape": {"dim": [{"size": "128"}]}}}, "dtype": {"type": "DT_FLOAT"}}}, {"name": "StatefulPartitionedCall/se_mobilefacenet/model/stack1_block2_2_depthwise/depthwise_weights", "op": "Const", "attr": {"value": {"tensor": {"dtype": "DT_HALF", "tensorShape": {"dim": [{"size": "3"}, {"size": "3"}, {"size": "128"}, {"size": "1"}]}}}, "dtype": {"type": "DT_HALF"}}}, {"name": "StatefulPartitionedCall/se_mobilefacenet/model/stack1_block2_2_depthwise/depthwise_bn_offset", "op": "Const", "attr": {"value": {"tensor": {"dtype": "DT_FLOAT", "tensorShape": {"dim": [{"size": "128"}]}}}, "dtype": {"type": "DT_FLOAT"}}}, {"name": "StatefulPartitionedCall/se_mobilefacenet/model/stack1_block2_3_conv/Conv2D_weights", "op": "Const", "attr": {"value": {"tensor": {"dtype": "DT_HALF", "tensorShape": {"dim": [{"size": "1"}, {"size": "1"}, {"size": "128"}, {"size": "64"}]}}}, "dtype": {"type": "DT_HALF"}}}, {"name": "StatefulPartitionedCall/se_mobilefacenet/model/stack1_block2_3_conv/Conv2D_bn_offset", "op": "Const", "attr": {"value": {"tensor": {"dtype": "DT_FLOAT", "tensorShape": {"dim": [{"size": "64"}]}}}, "dtype": {"type": "DT_FLOAT"}}}, {"name": "StatefulPartitionedCall/se_mobilefacenet/model/stack1_block3_1_conv/Conv2D_weights", "op": "Const", "attr": {"value": {"tensor": {"dtype": "DT_HALF", "tensorShape": {"dim": [{"size": "1"}, {"size": "1"}, {"size": "64"}, {"size": "128"}]}}}, "dtype": {"type": "DT_HALF"}}}, {"name": "StatefulPartitionedCall/se_mobilefacenet/model/stack1_block3_1_conv/Conv2D_bn_offset", "op": "Const", "attr": {"value": {"tensor": {"dtype": "DT_FLOAT", "tensorShape": {"dim": [{"size": "128"}]}}}, "dtype": {"type": "DT_FLOAT"}}}, {"name": "StatefulPartitionedCall/se_mobilefacenet/model/stack1_block3_2_depthwise/depthwise_weights", "op": "Const", "attr": {"value": {"tensor": {"dtype": "DT_HALF", "tensorShape": {"dim": [{"size": "3"}, {"size": "3"}, {"size": "128"}, {"size": "1"}]}}}, "dtype": {"type": "DT_HALF"}}}, {"name": "StatefulPartitionedCall/se_mobilefacenet/model/stack1_block3_2_depthwise/depthwise_bn_offset", "op": "Const", "attr": {"value": {"tensor": {"dtype": "DT_FLOAT", "tensorShape": {"dim": [{"size": "128"}]}}}, "dtype": {"type": "DT_FLOAT"}}}, {"name": "StatefulPartitionedCall/se_mobilefacenet/model/stack1_block3_3_conv/Conv2D_weights", "op": "Const", "attr": {"value": {"tensor": {"dtype": "DT_HALF", "tensorShape": {"dim": [{"size": "1"}, {"size": "1"}, {"size": "128"}, {"size": "64"}]}}}, "dtype": {"type": "DT_HALF"}}}, {"name": "StatefulPartitionedCall/se_mobilefacenet/model/stack1_block3_3_conv/Conv2D_bn_offset", "op": "Const", "attr": {"value": {"tensor": {"dtype": "DT_FLOAT", "tensorShape": {"dim": [{"size": "64"}]}}}, "dtype": {"type": "DT_FLOAT"}}}, {"name": "StatefulPartitionedCall/se_mobilefacenet/model/stack1_block4_1_conv/Conv2D_weights", "op": "Const", "attr": {"value": {"tensor": {"dtype": "DT_HALF", "tensorShape": {"dim": [{"size": "1"}, {"size": "1"}, {"size": "64"}, {"size": "128"}]}}}, "dtype": {"type": "DT_HALF"}}}, {"name": "StatefulPartitionedCall/se_mobilefacenet/model/stack1_block4_1_conv/Conv2D_bn_offset", "op": "Const", "attr": {"value": {"tensor": {"dtype": "DT_FLOAT", "tensorShape": {"dim": [{"size": "128"}]}}}, "dtype": {"type": "DT_FLOAT"}}}, {"name": "StatefulPartitionedCall/se_mobilefacenet/model/stack1_block4_2_depthwise/depthwise_weights", "op": "Const", "attr": {"value": {"tensor": {"dtype": "DT_HALF", "tensorShape": {"dim": [{"size": "3"}, {"size": "3"}, {"size": "128"}, {"size": "1"}]}}}, "dtype": {"type": "DT_HALF"}}}, {"name": "StatefulPartitionedCall/se_mobilefacenet/model/stack1_block4_2_depthwise/depthwise_bn_offset", "op": "Const", "attr": {"value": {"tensor": {"dtype": "DT_FLOAT", "tensorShape": {"dim": [{"size": "128"}]}}}, "dtype": {"type": "DT_FLOAT"}}}, {"name": "StatefulPartitionedCall/se_mobilefacenet/model/stack1_block4_3_conv/Conv2D_weights", "op": "Const", "attr": {"value": {"tensor": {"dtype": "DT_HALF", "tensorShape": {"dim": [{"size": "1"}, {"size": "1"}, {"size": "128"}, {"size": "64"}]}}}, "dtype": {"type": "DT_HALF"}}}, {"name": "StatefulPartitionedCall/se_mobilefacenet/model/stack1_block4_3_conv/Conv2D_bn_offset", "op": "Const", "attr": {"value": {"tensor": {"dtype": "DT_FLOAT", "tensorShape": {"dim": [{"size": "64"}]}}}, "dtype": {"type": "DT_FLOAT"}}}, {"name": "StatefulPartitionedCall/se_mobilefacenet/model/stack1_block5_1_conv/Conv2D_weights", "op": "Const", "attr": {"value": {"tensor": {"dtype": "DT_HALF", "tensorShape": {"dim": [{"size": "1"}, {"size": "1"}, {"size": "64"}, {"size": "128"}]}}}, "dtype": {"type": "DT_HALF"}}}, {"name": "StatefulPartitionedCall/se_mobilefacenet/model/stack1_block5_1_conv/Conv2D_bn_offset", "op": "Const", "attr": {"value": {"tensor": {"dtype": "DT_FLOAT", "tensorShape": {"dim": [{"size": "128"}]}}}, "dtype": {"type": "DT_FLOAT"}}}, {"name": "StatefulPartitionedCall/se_mobilefacenet/model/stack1_block5_2_depthwise/depthwise_weights", "op": "Const", "attr": {"value": {"tensor": {"dtype": "DT_HALF", "tensorShape": {"dim": [{"size": "3"}, {"size": "3"}, {"size": "128"}, {"size": "1"}]}}}, "dtype": {"type": "DT_HALF"}}}, {"name": "StatefulPartitionedCall/se_mobilefacenet/model/stack1_block5_2_depthwise/depthwise_bn_offset", "op": "Const", "attr": {"value": {"tensor": {"dtype": "DT_FLOAT", "tensorShape": {"dim": [{"size": "128"}]}}}, "dtype": {"type": "DT_FLOAT"}}}, {"name": "StatefulPartitionedCall/se_mobilefacenet/model/stack1_block5_3_conv/Conv2D_weights", "op": "Const", "attr": {"value": {"tensor": {"dtype": "DT_HALF", "tensorShape": {"dim": [{"size": "1"}, {"size": "1"}, {"size": "128"}, {"size": "64"}]}}}, "dtype": {"type": "DT_HALF"}}}, {"name": "StatefulPartitionedCall/se_mobilefacenet/model/stack1_block5_3_conv/Conv2D_bn_offset", "op": "Const", "attr": {"value": {"tensor": {"dtype": "DT_FLOAT", "tensorShape": {"dim": [{"size": "64"}]}}}, "dtype": {"type": "DT_FLOAT"}}}, {"name": "StatefulPartitionedCall/se_mobilefacenet/model/stack2_block1_1_conv/Conv2D_weights", "op": "Const", "attr": {"value": {"tensor": {"dtype": "DT_HALF", "tensorShape": {"dim": [{"size": "1"}, {"size": "1"}, {"size": "64"}, {"size": "256"}]}}}, "dtype": {"type": "DT_HALF"}}}, {"name": "StatefulPartitionedCall/se_mobilefacenet/model/stack2_block1_1_conv/Conv2D_bn_offset", "op": "Const", "attr": {"value": {"tensor": {"dtype": "DT_FLOAT", "tensorShape": {"dim": [{"size": "256"}]}}}, "dtype": {"type": "DT_FLOAT"}}}, {"name": "StatefulPartitionedCall/se_mobilefacenet/model/stack2_block1_2_depthwise/depthwise_weights", "op": "Const", "attr": {"value": {"tensor": {"dtype": "DT_HALF", "tensorShape": {"dim": [{"size": "3"}, {"size": "3"}, {"size": "256"}, {"size": "1"}]}}}, "dtype": {"type": "DT_HALF"}}}, {"name": "StatefulPartitionedCall/se_mobilefacenet/model/stack2_block1_2_depthwise/depthwise_bn_offset", "op": "Const", "attr": {"value": {"tensor": {"dtype": "DT_FLOAT", "tensorShape": {"dim": [{"size": "256"}]}}}, "dtype": {"type": "DT_FLOAT"}}}, {"name": "StatefulPartitionedCall/se_mobilefacenet/model/stack2_block1_3_conv/Conv2D_weights", "op": "Const", "attr": {"value": {"tensor": {"dtype": "DT_HALF", "tensorShape": {"dim": [{"size": "1"}, {"size": "1"}, {"size": "256"}, {"size": "128"}]}}}, "dtype": {"type": "DT_HALF"}}}, {"name": "StatefulPartitionedCall/se_mobilefacenet/model/stack2_block1_3_conv/Conv2D_bn_offset", "op": "Const", "attr": {"value": {"tensor": {"dtype": "DT_FLOAT", "tensorShape": {"dim": [{"size": "128"}]}}}, "dtype": {"type": "DT_FLOAT"}}}, {"name": "StatefulPartitionedCall/se_mobilefacenet/model/stack3_block1_1_conv/Conv2D_weights", "op": "Const", "attr": {"value": {"tensor": {"dtype": "DT_HALF", "tensorShape": {"dim": [{"size": "1"}, {"size": "1"}, {"size": "128"}, {"size": "256"}]}}}, "dtype": {"type": "DT_HALF"}}}, {"name": "StatefulPartitionedCall/se_mobilefacenet/model/stack3_block1_1_conv/Conv2D_bn_offset", "op": "Const", "attr": {"value": {"tensor": {"dtype": "DT_FLOAT", "tensorShape": {"dim": [{"size": "256"}]}}}, "dtype": {"type": "DT_FLOAT"}}}, {"name": "StatefulPartitionedCall/se_mobilefacenet/model/stack3_block1_2_depthwise/depthwise_weights", "op": "Const", "attr": {"value": {"tensor": {"dtype": "DT_HALF", "tensorShape": {"dim": [{"size": "3"}, {"size": "3"}, {"size": "256"}, {"size": "1"}]}}}, "dtype": {"type": "DT_HALF"}}}, {"name": "StatefulPartitionedCall/se_mobilefacenet/model/stack3_block1_2_depthwise/depthwise_bn_offset", "op": "Const", "attr": {"value": {"tensor": {"dtype": "DT_FLOAT", "tensorShape": {"dim": [{"size": "256"}]}}}, "dtype": {"type": "DT_FLOAT"}}}, {"name": "StatefulPartitionedCall/se_mobilefacenet/model/stack3_block1_3_conv/Conv2D_weights", "op": "Const", "attr": {"value": {"tensor": {"dtype": "DT_HALF", "tensorShape": {"dim": [{"size": "1"}, {"size": "1"}, {"size": "256"}, {"size": "128"}]}}}, "dtype": {"type": "DT_HALF"}}}, {"name": "StatefulPartitionedCall/se_mobilefacenet/model/stack3_block1_3_conv/Conv2D_bn_offset", "op": "Const", "attr": {"value": {"tensor": {"dtype": "DT_FLOAT", "tensorShape": {"dim": [{"size": "128"}]}}}, "dtype": {"type": "DT_FLOAT"}}}, {"name": "StatefulPartitionedCall/se_mobilefacenet/model/stack3_block2_1_conv/Conv2D_weights", "op": "Const", "attr": {"value": {"tensor": {"dtype": "DT_HALF", "tensorShape": {"dim": [{"size": "1"}, {"size": "1"}, {"size": "128"}, {"size": "256"}]}}}, "dtype": {"type": "DT_HALF"}}}, {"name": "StatefulPartitionedCall/se_mobilefacenet/model/stack3_block2_1_conv/Conv2D_bn_offset", "op": "Const", "attr": {"value": {"tensor": {"dtype": "DT_FLOAT", "tensorShape": {"dim": [{"size": "256"}]}}}, "dtype": {"type": "DT_FLOAT"}}}, {"name": "StatefulPartitionedCall/se_mobilefacenet/model/stack3_block2_2_depthwise/depthwise_weights", "op": "Const", "attr": {"value": {"tensor": {"dtype": "DT_HALF", "tensorShape": {"dim": [{"size": "3"}, {"size": "3"}, {"size": "256"}, {"size": "1"}]}}}, "dtype": {"type": "DT_HALF"}}}, {"name": "StatefulPartitionedCall/se_mobilefacenet/model/stack3_block2_2_depthwise/depthwise_bn_offset", "op": "Const", "attr": {"value": {"tensor": {"dtype": "DT_FLOAT", "tensorShape": {"dim": [{"size": "256"}]}}}, "dtype": {"type": "DT_FLOAT"}}}, {"name": "StatefulPartitionedCall/se_mobilefacenet/model/stack3_block2_3_conv/Conv2D_weights", "op": "Const", "attr": {"value": {"tensor": {"dtype": "DT_HALF", "tensorShape": {"dim": [{"size": "1"}, {"size": "1"}, {"size": "256"}, {"size": "128"}]}}}, "dtype": {"type": "DT_HALF"}}}, {"name": "StatefulPartitionedCall/se_mobilefacenet/model/stack3_block2_3_conv/Conv2D_bn_offset", "op": "Const", "attr": {"value": {"tensor": {"dtype": "DT_FLOAT", "tensorShape": {"dim": [{"size": "128"}]}}}, "dtype": {"type": "DT_FLOAT"}}}, {"name": "StatefulPartitionedCall/se_mobilefacenet/model/stack3_block3_1_conv/Conv2D_weights", "op": "Const", "attr": {"value": {"tensor": {"dtype": "DT_HALF", "tensorShape": {"dim": [{"size": "1"}, {"size": "1"}, {"size": "128"}, {"size": "256"}]}}}, "dtype": {"type": "DT_HALF"}}}, {"name": "StatefulPartitionedCall/se_mobilefacenet/model/stack3_block3_1_conv/Conv2D_bn_offset", "op": "Const", "attr": {"value": {"tensor": {"dtype": "DT_FLOAT", "tensorShape": {"dim": [{"size": "256"}]}}}, "dtype": {"type": "DT_FLOAT"}}}, {"name": "StatefulPartitionedCall/se_mobilefacenet/model/stack3_block3_2_depthwise/depthwise_weights", "op": "Const", "attr": {"value": {"tensor": {"dtype": "DT_HALF", "tensorShape": {"dim": [{"size": "3"}, {"size": "3"}, {"size": "256"}, {"size": "1"}]}}}, "dtype": {"type": "DT_HALF"}}}, {"name": "StatefulPartitionedCall/se_mobilefacenet/model/stack3_block3_2_depthwise/depthwise_bn_offset", "op": "Const", "attr": {"value": {"tensor": {"dtype": "DT_FLOAT", "tensorShape": {"dim": [{"size": "256"}]}}}, "dtype": {"type": "DT_FLOAT"}}}, {"name": "StatefulPartitionedCall/se_mobilefacenet/model/stack3_block3_3_conv/Conv2D_weights", "op": "Const", "attr": {"value": {"tensor": {"dtype": "DT_HALF", "tensorShape": {"dim": [{"size": "1"}, {"size": "1"}, {"size": "256"}, {"size": "128"}]}}}, "dtype": {"type": "DT_HALF"}}}, {"name": "StatefulPartitionedCall/se_mobilefacenet/model/stack3_block3_3_conv/Conv2D_bn_offset", "op": "Const", "attr": {"value": {"tensor": {"dtype": "DT_FLOAT", "tensorShape": {"dim": [{"size": "128"}]}}}, "dtype": {"type": "DT_FLOAT"}}}, {"name": "StatefulPartitionedCall/se_mobilefacenet/model/stack3_block4_1_conv/Conv2D_weights", "op": "Const", "attr": {"value": {"tensor": {"dtype": "DT_HALF", "tensorShape": {"dim": [{"size": "1"}, {"size": "1"}, {"size": "128"}, {"size": "256"}]}}}, "dtype": {"type": "DT_HALF"}}}, {"name": "StatefulPartitionedCall/se_mobilefacenet/model/stack3_block4_1_conv/Conv2D_bn_offset", "op": "Const", "attr": {"value": {"tensor": {"dtype": "DT_FLOAT", "tensorShape": {"dim": [{"size": "256"}]}}}, "dtype": {"type": "DT_FLOAT"}}}, {"name": "StatefulPartitionedCall/se_mobilefacenet/model/stack3_block4_2_depthwise/depthwise_weights", "op": "Const", "attr": {"value": {"tensor": {"dtype": "DT_HALF", "tensorShape": {"dim": [{"size": "3"}, {"size": "3"}, {"size": "256"}, {"size": "1"}]}}}, "dtype": {"type": "DT_HALF"}}}, {"name": "StatefulPartitionedCall/se_mobilefacenet/model/stack3_block4_2_depthwise/depthwise_bn_offset", "op": "Const", "attr": {"value": {"tensor": {"dtype": "DT_FLOAT", "tensorShape": {"dim": [{"size": "256"}]}}}, "dtype": {"type": "DT_FLOAT"}}}, {"name": "StatefulPartitionedCall/se_mobilefacenet/model/stack3_block4_3_conv/Conv2D_weights", "op": "Const", "attr": {"value": {"tensor": {"dtype": "DT_HALF", "tensorShape": {"dim": [{"size": "1"}, {"size": "1"}, {"size": "256"}, {"size": "128"}]}}}, "dtype": {"type": "DT_HALF"}}}, {"name": "StatefulPartitionedCall/se_mobilefacenet/model/stack3_block4_3_conv/Conv2D_bn_offset", "op": "Const", "attr": {"value": {"tensor": {"dtype": "DT_FLOAT", "tensorShape": {"dim": [{"size": "128"}]}}}, "dtype": {"type": "DT_FLOAT"}}}, {"name": "StatefulPartitionedCall/se_mobilefacenet/model/stack3_block5_1_conv/Conv2D_weights", "op": "Const", "attr": {"value": {"tensor": {"dtype": "DT_HALF", "tensorShape": {"dim": [{"size": "1"}, {"size": "1"}, {"size": "128"}, {"size": "256"}]}}}, "dtype": {"type": "DT_HALF"}}}, {"name": "StatefulPartitionedCall/se_mobilefacenet/model/stack3_block5_1_conv/Conv2D_bn_offset", "op": "Const", "attr": {"value": {"tensor": {"dtype": "DT_FLOAT", "tensorShape": {"dim": [{"size": "256"}]}}}, "dtype": {"type": "DT_FLOAT"}}}, {"name": "StatefulPartitionedCall/se_mobilefacenet/model/stack3_block5_2_depthwise/depthwise_weights", "op": "Const", "attr": {"value": {"tensor": {"dtype": "DT_HALF", "tensorShape": {"dim": [{"size": "3"}, {"size": "3"}, {"size": "256"}, {"size": "1"}]}}}, "dtype": {"type": "DT_HALF"}}}, {"name": "StatefulPartitionedCall/se_mobilefacenet/model/stack3_block5_2_depthwise/depthwise_bn_offset", "op": "Const", "attr": {"value": {"tensor": {"dtype": "DT_FLOAT", "tensorShape": {"dim": [{"size": "256"}]}}}, "dtype": {"type": "DT_FLOAT"}}}, {"name": "StatefulPartitionedCall/se_mobilefacenet/model/stack3_block5_3_conv/Conv2D_weights", "op": "Const", "attr": {"value": {"tensor": {"dtype": "DT_HALF", "tensorShape": {"dim": [{"size": "1"}, {"size": "1"}, {"size": "256"}, {"size": "128"}]}}}, "dtype": {"type": "DT_HALF"}}}, {"name": "StatefulPartitionedCall/se_mobilefacenet/model/stack3_block5_3_conv/Conv2D_bn_offset", "op": "Const", "attr": {"value": {"tensor": {"dtype": "DT_FLOAT", "tensorShape": {"dim": [{"size": "128"}]}}}, "dtype": {"type": "DT_FLOAT"}}}, {"name": "StatefulPartitionedCall/se_mobilefacenet/model/stack3_block6_1_conv/Conv2D_weights", "op": "Const", "attr": {"value": {"tensor": {"dtype": "DT_HALF", "tensorShape": {"dim": [{"size": "1"}, {"size": "1"}, {"size": "128"}, {"size": "256"}]}}}, "dtype": {"type": "DT_HALF"}}}, {"name": "StatefulPartitionedCall/se_mobilefacenet/model/stack3_block6_1_conv/Conv2D_bn_offset", "op": "Const", "attr": {"value": {"tensor": {"dtype": "DT_FLOAT", "tensorShape": {"dim": [{"size": "256"}]}}}, "dtype": {"type": "DT_FLOAT"}}}, {"name": "StatefulPartitionedCall/se_mobilefacenet/model/stack3_block6_2_depthwise/depthwise_weights", "op": "Const", "attr": {"value": {"tensor": {"dtype": "DT_HALF", "tensorShape": {"dim": [{"size": "3"}, {"size": "3"}, {"size": "256"}, {"size": "1"}]}}}, "dtype": {"type": "DT_HALF"}}}, {"name": "StatefulPartitionedCall/se_mobilefacenet/model/stack3_block6_2_depthwise/depthwise_bn_offset", "op": "Const", "attr": {"value": {"tensor": {"dtype": "DT_FLOAT", "tensorShape": {"dim": [{"size": "256"}]}}}, "dtype": {"type": "DT_FLOAT"}}}, {"name": "StatefulPartitionedCall/se_mobilefacenet/model/stack3_block6_3_conv/Conv2D_weights", "op": "Const", "attr": {"value": {"tensor": {"dtype": "DT_HALF", "tensorShape": {"dim": [{"size": "1"}, {"size": "1"}, {"size": "256"}, {"size": "128"}]}}}, "dtype": {"type": "DT_HALF"}}}, {"name": "StatefulPartitionedCall/se_mobilefacenet/model/stack3_block6_3_conv/Conv2D_bn_offset", "op": "Const", "attr": {"value": {"tensor": {"dtype": "DT_FLOAT", "tensorShape": {"dim": [{"size": "128"}]}}}, "dtype": {"type": "DT_FLOAT"}}}, {"name": "StatefulPartitionedCall/se_mobilefacenet/model/stack4_block1_1_conv/Conv2D_weights", "op": "Const", "attr": {"value": {"tensor": {"dtype": "DT_HALF", "tensorShape": {"dim": [{"size": "1"}, {"size": "1"}, {"size": "128"}, {"size": "512"}]}}}, "dtype": {"type": "DT_HALF"}}}, {"name": "StatefulPartitionedCall/se_mobilefacenet/model/stack4_block1_1_conv/Conv2D_bn_offset", "op": "Const", "attr": {"value": {"tensor": {"dtype": "DT_FLOAT", "tensorShape": {"dim": [{"size": "512"}]}}}, "dtype": {"type": "DT_FLOAT"}}}, {"name": "StatefulPartitionedCall/se_mobilefacenet/model/stack4_block1_2_depthwise/depthwise_weights", "op": "Const", "attr": {"value": {"tensor": {"dtype": "DT_HALF", "tensorShape": {"dim": [{"size": "3"}, {"size": "3"}, {"size": "512"}, {"size": "1"}]}}}, "dtype": {"type": "DT_HALF"}}}, {"name": "StatefulPartitionedCall/se_mobilefacenet/model/stack4_block1_2_depthwise/depthwise_bn_offset", "op": "Const", "attr": {"value": {"tensor": {"dtype": "DT_FLOAT", "tensorShape": {"dim": [{"size": "512"}]}}}, "dtype": {"type": "DT_FLOAT"}}}, {"name": "StatefulPartitionedCall/se_mobilefacenet/model/stack4_block1_3_conv/Conv2D_weights", "op": "Const", "attr": {"value": {"tensor": {"dtype": "DT_HALF", "tensorShape": {"dim": [{"size": "1"}, {"size": "1"}, {"size": "512"}, {"size": "128"}]}}}, "dtype": {"type": "DT_HALF"}}}, {"name": "StatefulPartitionedCall/se_mobilefacenet/model/stack4_block1_3_conv/Conv2D_bn_offset", "op": "Const", "attr": {"value": {"tensor": {"dtype": "DT_FLOAT", "tensorShape": {"dim": [{"size": "128"}]}}}, "dtype": {"type": "DT_FLOAT"}}}, {"name": "StatefulPartitionedCall/se_mobilefacenet/model/stack5_block1_1_conv/Conv2D_weights", "op": "Const", "attr": {"value": {"tensor": {"dtype": "DT_HALF", "tensorShape": {"dim": [{"size": "1"}, {"size": "1"}, {"size": "128"}, {"size": "256"}]}}}, "dtype": {"type": "DT_HALF"}}}, {"name": "StatefulPartitionedCall/se_mobilefacenet/model/stack5_block1_1_conv/Conv2D_bn_offset", "op": "Const", "attr": {"value": {"tensor": {"dtype": "DT_FLOAT", "tensorShape": {"dim": [{"size": "256"}]}}}, "dtype": {"type": "DT_FLOAT"}}}, {"name": "StatefulPartitionedCall/se_mobilefacenet/model/stack5_block1_2_depthwise/depthwise_weights", "op": "Const", "attr": {"value": {"tensor": {"dtype": "DT_HALF", "tensorShape": {"dim": [{"size": "3"}, {"size": "3"}, {"size": "256"}, {"size": "1"}]}}}, "dtype": {"type": "DT_HALF"}}}, {"name": "StatefulPartitionedCall/se_mobilefacenet/model/stack5_block1_2_depthwise/depthwise_bn_offset", "op": "Const", "attr": {"value": {"tensor": {"dtype": "DT_FLOAT", "tensorShape": {"dim": [{"size": "256"}]}}}, "dtype": {"type": "DT_FLOAT"}}}, {"name": "StatefulPartitionedCall/se_mobilefacenet/model/stack5_block1_3_conv/Conv2D_weights", "op": "Const", "attr": {"value": {"tensor": {"dtype": "DT_HALF", "tensorShape": {"dim": [{"size": "1"}, {"size": "1"}, {"size": "256"}, {"size": "128"}]}}}, "dtype": {"type": "DT_HALF"}}}, {"name": "StatefulPartitionedCall/se_mobilefacenet/model/stack5_block1_3_conv/Conv2D_bn_offset", "op": "Const", "attr": {"value": {"tensor": {"dtype": "DT_FLOAT", "tensorShape": {"dim": [{"size": "128"}]}}}, "dtype": {"type": "DT_FLOAT"}}}, {"name": "StatefulPartitionedCall/se_mobilefacenet/model/stack5_block2_1_conv/Conv2D_weights", "op": "Const", "attr": {"value": {"tensor": {"dtype": "DT_HALF", "tensorShape": {"dim": [{"size": "1"}, {"size": "1"}, {"size": "128"}, {"size": "256"}]}}}, "dtype": {"type": "DT_HALF"}}}, {"name": "StatefulPartitionedCall/se_mobilefacenet/model/stack5_block2_1_conv/Conv2D_bn_offset", "op": "Const", "attr": {"value": {"tensor": {"dtype": "DT_FLOAT", "tensorShape": {"dim": [{"size": "256"}]}}}, "dtype": {"type": "DT_FLOAT"}}}, {"name": "StatefulPartitionedCall/se_mobilefacenet/model/stack5_block2_2_depthwise/depthwise_weights", "op": "Const", "attr": {"value": {"tensor": {"dtype": "DT_HALF", "tensorShape": {"dim": [{"size": "3"}, {"size": "3"}, {"size": "256"}, {"size": "1"}]}}}, "dtype": {"type": "DT_HALF"}}}, {"name": "StatefulPartitionedCall/se_mobilefacenet/model/stack5_block2_2_depthwise/depthwise_bn_offset", "op": "Const", "attr": {"value": {"tensor": {"dtype": "DT_FLOAT", "tensorShape": {"dim": [{"size": "256"}]}}}, "dtype": {"type": "DT_FLOAT"}}}, {"name": "StatefulPartitionedCall/se_mobilefacenet/model/stack5_block2_3_conv/Conv2D_weights", "op": "Const", "attr": {"value": {"tensor": {"dtype": "DT_HALF", "tensorShape": {"dim": [{"size": "1"}, {"size": "1"}, {"size": "256"}, {"size": "128"}]}}}, "dtype": {"type": "DT_HALF"}}}, {"name": "StatefulPartitionedCall/se_mobilefacenet/model/stack5_block2_3_conv/Conv2D_bn_offset", "op": "Const", "attr": {"value": {"tensor": {"dtype": "DT_FLOAT", "tensorShape": {"dim": [{"size": "128"}]}}}, "dtype": {"type": "DT_FLOAT"}}}, {"name": "StatefulPartitionedCall/se_mobilefacenet/model/pw_conv/Conv2D_weights", "op": "Const", "attr": {"value": {"tensor": {"dtype": "DT_HALF", "tensorShape": {"dim": [{"size": "1"}, {"size": "1"}, {"size": "128"}, {"size": "512"}]}}}, "dtype": {"type": "DT_HALF"}}}, {"name": "StatefulPartitionedCall/se_mobilefacenet/model/pw_conv/Conv2D_bn_offset", "op": "Const", "attr": {"value": {"tensor": {"dtype": "DT_FLOAT", "tensorShape": {"dim": [{"size": "512"}]}}}, "dtype": {"type": "DT_FLOAT"}}}, {"name": "StatefulPartitionedCall/se_mobilefacenet/model/GDC_dw/depthwise_weights", "op": "Const", "attr": {"value": {"tensor": {"dtype": "DT_HALF", "tensorShape": {"dim": [{"size": "7"}, {"size": "7"}, {"size": "512"}, {"size": "1"}]}}}, "dtype": {"type": "DT_HALF"}}}, {"name": "StatefulPartitionedCall/se_mobilefacenet/model/GDC_dw/depthwise_bn_offset", "op": "Const", "attr": {"value": {"tensor": {"dtype": "DT_FLOAT", "tensorShape": {"dim": [{"size": "512"}]}}}, "dtype": {"type": "DT_FLOAT"}}}, {"name": "StatefulPartitionedCall/se_mobilefacenet/model/stem_1_conv/Cast", "op": "Cast", "input": ["image"], "attr": {"SrcT": {"type": "DT_FLOAT"}, "DstT": {"type": "DT_HALF"}, "Truncate": {"b": false}}}, {"name": "StatefulPartitionedCall/se_mobilefacenet/model/stem_1_conv/Conv2D", "op": "Conv2D", "input": ["StatefulPartitionedCall/se_mobilefacenet/model/stem_1_conv/Cast", "StatefulPartitionedCall/se_mobilefacenet/model/stem_1_conv/Conv2D_weights"], "device": "/device:CPU:0", "attr": {"padding": {"s": "U0FNRQ=="}, "data_format": {"s": "TkhXQw=="}, "strides": {"list": {"i": ["1", "2", "2", "1"]}}, "use_cudnn_on_gpu": {"b": true}, "T": {"type": "DT_HALF"}, "explicit_paddings": {"list": {}}, "dilations": {"list": {"i": ["1", "1", "1", "1"]}}}}, {"name": "StatefulPartitionedCall/se_mobilefacenet/model/stem_1_bn/FusedBatchNormV3", "op": "BiasAdd", "input": ["StatefulPartitionedCall/se_mobilefacenet/model/stem_1_conv/Conv2D", "StatefulPartitionedCall/se_mobilefacenet/model/stem_1_conv/Conv2D_bn_offset"], "attr": {"data_format": {"s": "TkhXQw=="}, "T": {"type": "DT_HALF"}}}, {"name": "StatefulPartitionedCall/se_mobilefacenet/model/stem_1_prelu/Relu", "op": "Prelu", "input": ["StatefulPartitionedCall/se_mobilefacenet/model/stem_1_bn/FusedBatchNormV3", "StatefulPartitionedCall/se_mobilefacenet/model/stem_1_prelu/Neg"]}, {"name": "StatefulPartitionedCall/se_mobilefacenet/model/stem_2_separable/separable_conv2d/depthwise", "op": "DepthwiseConv2dNative", "input": ["StatefulPartitionedCall/se_mobilefacenet/model/stem_1_prelu/Relu", "StatefulPartitionedCall/se_mobilefacenet/model/stem_2_separable/separable_conv2d/Cast"], "attr": {"padding": {"s": "U0FNRQ=="}, "data_format": {"s": "TkhXQw=="}, "T": {"type": "DT_HALF"}, "explicit_paddings": {"list": {}}, "dilations": {"list": {"i": ["1", "1", "1", "1"]}}, "strides": {"list": {"i": ["1", "1", "1", "1"]}}}}, {"name": "StatefulPartitionedCall/se_mobilefacenet/model/stem_2_separable/separable_conv2d", "op": "Conv2D", "input": ["StatefulPartitionedCall/se_mobilefacenet/model/stem_2_separable/separable_conv2d/depthwise", "StatefulPartitionedCall/se_mobilefacenet/model/stem_2_separable/separable_conv2d_weights"], "device": "/device:CPU:0", "attr": {"padding": {"s": "VkFMSUQ="}, "data_format": {"s": "TkhXQw=="}, "use_cudnn_on_gpu": {"b": true}, "strides": {"list": {"i": ["1", "1", "1", "1"]}}, "T": {"type": "DT_HALF"}, "explicit_paddings": {"list": {}}, "dilations": {"list": {"i": ["1", "1", "1", "1"]}}}}, {"name": "StatefulPartitionedCall/se_mobilefacenet/model/stem_2_bn/FusedBatchNormV3", "op": "BiasAdd", "input": ["StatefulPartitionedCall/se_mobilefacenet/model/stem_2_separable/separable_conv2d", "StatefulPartitionedCall/se_mobilefacenet/model/stem_2_separable/separable_conv2d_bn_offset"], "attr": {"data_format": {"s": "TkhXQw=="}, "T": {"type": "DT_HALF"}}}, {"name": "StatefulPartitionedCall/se_mobilefacenet/model/stem_2_prelu/Relu", "op": "Prelu", "input": ["StatefulPartitionedCall/se_mobilefacenet/model/stem_2_bn/FusedBatchNormV3", "StatefulPartitionedCall/se_mobilefacenet/model/stem_2_prelu/Neg"]}, {"name": "StatefulPartitionedCall/se_mobilefacenet/model/stack1_block1_1_conv/Conv2D", "op": "Conv2D", "input": ["StatefulPartitionedCall/se_mobilefacenet/model/stem_2_prelu/Relu", "StatefulPartitionedCall/se_mobilefacenet/model/stack1_block1_1_conv/Conv2D_weights"], "device": "/device:CPU:0", "attr": {"padding": {"s": "U0FNRQ=="}, "data_format": {"s": "TkhXQw=="}, "use_cudnn_on_gpu": {"b": true}, "strides": {"list": {"i": ["1", "1", "1", "1"]}}, "T": {"type": "DT_HALF"}, "explicit_paddings": {"list": {}}, "dilations": {"list": {"i": ["1", "1", "1", "1"]}}}}, {"name": "StatefulPartitionedCall/se_mobilefacenet/model/stack1_block1_1_bn/FusedBatchNormV3", "op": "BiasAdd", "input": ["StatefulPartitionedCall/se_mobilefacenet/model/stack1_block1_1_conv/Conv2D", "StatefulPartitionedCall/se_mobilefacenet/model/stack1_block1_1_conv/Conv2D_bn_offset"], "attr": {"data_format": {"s": "TkhXQw=="}, "T": {"type": "DT_HALF"}}}, {"name": "StatefulPartitionedCall/se_mobilefacenet/model/stack1_block1_1_prelu/Relu", "op": "Prelu", "input": ["StatefulPartitionedCall/se_mobilefacenet/model/stack1_block1_1_bn/FusedBatchNormV3", "StatefulPartitionedCall/se_mobilefacenet/model/stack1_block1_1_prelu/Neg"]}, {"name": "StatefulPartitionedCall/se_mobilefacenet/model/stack1_block1_2_depthwise/depthwise", "op": "FusedDepthwiseConv2dNative", "input": ["StatefulPartitionedCall/se_mobilefacenet/model/stack1_block1_1_prelu/Relu", "StatefulPartitionedCall/se_mobilefacenet/model/stack1_block1_2_depthwise/depthwise_weights", "StatefulPartitionedCall/se_mobilefacenet/model/stack1_block1_2_depthwise/depthwise_bn_offset", "StatefulPartitionedCall/se_mobilefacenet/model/stack1_block1_2_prelu/Neg"], "attr": {"padding": {"s": "U0FNRQ=="}, "data_format": {"s": "TkhXQw=="}, "strides": {"list": {"i": ["1", "2", "2", "1"]}}, "num_args": {"i": "2"}, "fused_ops": {"list": {"s": ["Qmlhc0FkZA==", "UHJlbHU="]}}, "T": {"type": "DT_HALF"}, "explicit_paddings": {"list": {}}, "dilations": {"list": {"i": ["1", "1", "1", "1"]}}}}, {"name": "StatefulPartitionedCall/se_mobilefacenet/model/stack1_block1_3_conv/Conv2D", "op": "Conv2D", "input": ["StatefulPartitionedCall/se_mobilefacenet/model/stack1_block1_2_depthwise/depthwise", "StatefulPartitionedCall/se_mobilefacenet/model/stack1_block1_3_conv/Conv2D_weights"], "device": "/device:CPU:0", "attr": {"padding": {"s": "U0FNRQ=="}, "data_format": {"s": "TkhXQw=="}, "strides": {"list": {"i": ["1", "1", "1", "1"]}}, "use_cudnn_on_gpu": {"b": true}, "T": {"type": "DT_HALF"}, "explicit_paddings": {"list": {}}, "dilations": {"list": {"i": ["1", "1", "1", "1"]}}}}, {"name": "StatefulPartitionedCall/se_mobilefacenet/model/stack1_block1_3_bn/FusedBatchNormV3", "op": "BiasAdd", "input": ["StatefulPartitionedCall/se_mobilefacenet/model/stack1_block1_3_conv/Conv2D", "StatefulPartitionedCall/se_mobilefacenet/model/stack1_block1_3_conv/Conv2D_bn_offset"], "attr": {"data_format": {"s": "TkhXQw=="}, "T": {"type": "DT_HALF"}}}, {"name": "StatefulPartitionedCall/se_mobilefacenet/model/global_average_pooling2d/Mean", "op": "Mean", "input": ["StatefulPartitionedCall/se_mobilefacenet/model/stack1_block1_3_bn/FusedBatchNormV3", "StatefulPartitionedCall/se_mobilefacenet/model/global_average_pooling2d/Mean/reduction_indices"], "attr": {"T": {"type": "DT_HALF"}, "Tidx": {"type": "DT_INT32"}, "keep_dims": {"b": true}}}, {"name": "StatefulPartitionedCall/se_mobilefacenet/model/stack1_block1_se_1_conv/Conv2D", "op": "Conv2D", "input": ["StatefulPartitionedCall/se_mobilefacenet/model/global_average_pooling2d/Mean", "StatefulPartitionedCall/se_mobilefacenet/model/stack1_block1_se_1_conv/Conv2D/Cast"], "device": "/device:CPU:0", "attr": {"padding": {"s": "VkFMSUQ="}, "data_format": {"s": "TkhXQw=="}, "use_cudnn_on_gpu": {"b": true}, "strides": {"list": {"i": ["1", "1", "1", "1"]}}, "T": {"type": "DT_HALF"}, "explicit_paddings": {"list": {}}, "dilations": {"list": {"i": ["1", "1", "1", "1"]}}}}, {"name": "StatefulPartitionedCall/se_mobilefacenet/model/stack1_block1_se_1_conv/BiasAdd", "op": "BiasAdd", "input": ["StatefulPartitionedCall/se_mobilefacenet/model/stack1_block1_se_1_conv/Conv2D", "StatefulPartitionedCall/se_mobilefacenet/model/stack1_block1_se_1_conv/BiasAdd/Cast"], "attr": {"data_format": {"s": "TkhXQw=="}, "T": {"type": "DT_HALF"}}}, {"name": "StatefulPartitionedCall/se_mobilefacenet/model/stack1_block1_se_prelu/Relu", "op": "Prelu", "input": ["StatefulPartitionedCall/se_mobilefacenet/model/stack1_block1_se_1_conv/BiasAdd", "StatefulPartitionedCall/se_mobilefacenet/model/stack1_block1_se_prelu/Neg"]}, {"name": "StatefulPartitionedCall/se_mobilefacenet/model/stack1_block1_se_2_conv/Conv2D", "op": "Conv2D", "input": ["StatefulPartitionedCall/se_mobilefacenet/model/stack1_block1_se_prelu/Relu", "StatefulPartitionedCall/se_mobilefacenet/model/stack1_block1_se_2_conv/Conv2D/Cast"], "device": "/device:CPU:0", "attr": {"padding": {"s": "VkFMSUQ="}, "data_format": {"s": "TkhXQw=="}, "use_cudnn_on_gpu": {"b": true}, "strides": {"list": {"i": ["1", "1", "1", "1"]}}, "T": {"type": "DT_HALF"}, "explicit_paddings": {"list": {}}, "dilations": {"list": {"i": ["1", "1", "1", "1"]}}}}, {"name": "StatefulPartitionedCall/se_mobilefacenet/model/stack1_block1_se_2_conv/BiasAdd", "op": "BiasAdd", "input": ["StatefulPartitionedCall/se_mobilefacenet/model/stack1_block1_se_2_conv/Conv2D", "StatefulPartitionedCall/se_mobilefacenet/model/stack1_block1_se_2_conv/BiasAdd/Cast"], "attr": {"data_format": {"s": "TkhXQw=="}, "T": {"type": "DT_HALF"}}}, {"name": "StatefulPartitionedCall/se_mobilefacenet/model/activation/Sigmoid", "op": "Sigmoid", "input": ["StatefulPartitionedCall/se_mobilefacenet/model/stack1_block1_se_2_conv/BiasAdd"], "attr": {"T": {"type": "DT_HALF"}}}, {"name": "StatefulPartitionedCall/se_mobilefacenet/model/stack1_block1_se_out/mul", "op": "Mul", "input": ["StatefulPartitionedCall/se_mobilefacenet/model/stack1_block1_3_bn/FusedBatchNormV3", "StatefulPartitionedCall/se_mobilefacenet/model/activation/Sigmoid"], "attr": {"T": {"type": "DT_HALF"}}}, {"name": "StatefulPartitionedCall/se_mobilefacenet/model/stack1_block2_1_conv/Conv2D", "op": "Conv2D", "input": ["StatefulPartitionedCall/se_mobilefacenet/model/stack1_block1_se_out/mul", "StatefulPartitionedCall/se_mobilefacenet/model/stack1_block2_1_conv/Conv2D_weights"], "device": "/device:CPU:0", "attr": {"padding": {"s": "U0FNRQ=="}, "data_format": {"s": "TkhXQw=="}, "strides": {"list": {"i": ["1", "1", "1", "1"]}}, "use_cudnn_on_gpu": {"b": true}, "T": {"type": "DT_HALF"}, "explicit_paddings": {"list": {}}, "dilations": {"list": {"i": ["1", "1", "1", "1"]}}}}, {"name": "StatefulPartitionedCall/se_mobilefacenet/model/stack1_block2_1_bn/FusedBatchNormV3", "op": "BiasAdd", "input": ["StatefulPartitionedCall/se_mobilefacenet/model/stack1_block2_1_conv/Conv2D", "StatefulPartitionedCall/se_mobilefacenet/model/stack1_block2_1_conv/Conv2D_bn_offset"], "attr": {"data_format": {"s": "TkhXQw=="}, "T": {"type": "DT_HALF"}}}, {"name": "StatefulPartitionedCall/se_mobilefacenet/model/stack1_block2_1_prelu/Relu", "op": "Prelu", "input": ["StatefulPartitionedCall/se_mobilefacenet/model/stack1_block2_1_bn/FusedBatchNormV3", "StatefulPartitionedCall/se_mobilefacenet/model/stack1_block2_1_prelu/Neg"]}, {"name": "StatefulPartitionedCall/se_mobilefacenet/model/stack1_block2_2_depthwise/depthwise", "op": "FusedDepthwiseConv2dNative", "input": ["StatefulPartitionedCall/se_mobilefacenet/model/stack1_block2_1_prelu/Relu", "StatefulPartitionedCall/se_mobilefacenet/model/stack1_block2_2_depthwise/depthwise_weights", "StatefulPartitionedCall/se_mobilefacenet/model/stack1_block2_2_depthwise/depthwise_bn_offset", "StatefulPartitionedCall/se_mobilefacenet/model/stack1_block2_2_prelu/Neg"], "attr": {"padding": {"s": "U0FNRQ=="}, "data_format": {"s": "TkhXQw=="}, "strides": {"list": {"i": ["1", "1", "1", "1"]}}, "num_args": {"i": "2"}, "fused_ops": {"list": {"s": ["Qmlhc0FkZA==", "UHJlbHU="]}}, "T": {"type": "DT_HALF"}, "explicit_paddings": {"list": {}}, "dilations": {"list": {"i": ["1", "1", "1", "1"]}}}}, {"name": "StatefulPartitionedCall/se_mobilefacenet/model/stack1_block2_3_conv/Conv2D", "op": "Conv2D", "input": ["StatefulPartitionedCall/se_mobilefacenet/model/stack1_block2_2_depthwise/depthwise", "StatefulPartitionedCall/se_mobilefacenet/model/stack1_block2_3_conv/Conv2D_weights"], "device": "/device:CPU:0", "attr": {"padding": {"s": "U0FNRQ=="}, "data_format": {"s": "TkhXQw=="}, "strides": {"list": {"i": ["1", "1", "1", "1"]}}, "use_cudnn_on_gpu": {"b": true}, "T": {"type": "DT_HALF"}, "explicit_paddings": {"list": {}}, "dilations": {"list": {"i": ["1", "1", "1", "1"]}}}}, {"name": "StatefulPartitionedCall/se_mobilefacenet/model/stack1_block2_3_bn/FusedBatchNormV3", "op": "BiasAdd", "input": ["StatefulPartitionedCall/se_mobilefacenet/model/stack1_block2_3_conv/Conv2D", "StatefulPartitionedCall/se_mobilefacenet/model/stack1_block2_3_conv/Conv2D_bn_offset"], "attr": {"data_format": {"s": "TkhXQw=="}, "T": {"type": "DT_HALF"}}}, {"name": "StatefulPartitionedCall/se_mobilefacenet/model/global_average_pooling2d_1/Mean", "op": "Mean", "input": ["StatefulPartitionedCall/se_mobilefacenet/model/stack1_block2_3_bn/FusedBatchNormV3", "StatefulPartitionedCall/se_mobilefacenet/model/global_average_pooling2d_1/Mean/reduction_indices"], "attr": {"Tidx": {"type": "DT_INT32"}, "T": {"type": "DT_HALF"}, "keep_dims": {"b": true}}}, {"name": "StatefulPartitionedCall/se_mobilefacenet/model/stack1_block2_se_1_conv/Conv2D", "op": "Conv2D", "input": ["StatefulPartitionedCall/se_mobilefacenet/model/global_average_pooling2d_1/Mean", "StatefulPartitionedCall/se_mobilefacenet/model/stack1_block2_se_1_conv/Conv2D/Cast"], "device": "/device:CPU:0", "attr": {"padding": {"s": "VkFMSUQ="}, "data_format": {"s": "TkhXQw=="}, "strides": {"list": {"i": ["1", "1", "1", "1"]}}, "use_cudnn_on_gpu": {"b": true}, "T": {"type": "DT_HALF"}, "explicit_paddings": {"list": {}}, "dilations": {"list": {"i": ["1", "1", "1", "1"]}}}}, {"name": "StatefulPartitionedCall/se_mobilefacenet/model/stack1_block2_se_1_conv/BiasAdd", "op": "BiasAdd", "input": ["StatefulPartitionedCall/se_mobilefacenet/model/stack1_block2_se_1_conv/Conv2D", "StatefulPartitionedCall/se_mobilefacenet/model/stack1_block2_se_1_conv/BiasAdd/Cast"], "attr": {"data_format": {"s": "TkhXQw=="}, "T": {"type": "DT_HALF"}}}, {"name": "StatefulPartitionedCall/se_mobilefacenet/model/stack1_block2_se_prelu/Relu", "op": "Prelu", "input": ["StatefulPartitionedCall/se_mobilefacenet/model/stack1_block2_se_1_conv/BiasAdd", "StatefulPartitionedCall/se_mobilefacenet/model/stack1_block2_se_prelu/Neg"]}, {"name": "StatefulPartitionedCall/se_mobilefacenet/model/stack1_block2_se_2_conv/Conv2D", "op": "Conv2D", "input": ["StatefulPartitionedCall/se_mobilefacenet/model/stack1_block2_se_prelu/Relu", "StatefulPartitionedCall/se_mobilefacenet/model/stack1_block2_se_2_conv/Conv2D/Cast"], "device": "/device:CPU:0", "attr": {"padding": {"s": "VkFMSUQ="}, "data_format": {"s": "TkhXQw=="}, "strides": {"list": {"i": ["1", "1", "1", "1"]}}, "use_cudnn_on_gpu": {"b": true}, "T": {"type": "DT_HALF"}, "explicit_paddings": {"list": {}}, "dilations": {"list": {"i": ["1", "1", "1", "1"]}}}}, {"name": "StatefulPartitionedCall/se_mobilefacenet/model/stack1_block2_se_2_conv/BiasAdd", "op": "BiasAdd", "input": ["StatefulPartitionedCall/se_mobilefacenet/model/stack1_block2_se_2_conv/Conv2D", "StatefulPartitionedCall/se_mobilefacenet/model/stack1_block2_se_2_conv/BiasAdd/Cast"], "attr": {"data_format": {"s": "TkhXQw=="}, "T": {"type": "DT_HALF"}}}, {"name": "StatefulPartitionedCall/se_mobilefacenet/model/activation_1/Sigmoid", "op": "Sigmoid", "input": ["StatefulPartitionedCall/se_mobilefacenet/model/stack1_block2_se_2_conv/BiasAdd"], "attr": {"T": {"type": "DT_HALF"}}}, {"name": "StatefulPartitionedCall/se_mobilefacenet/model/stack1_block2_se_out/mul", "op": "Mul", "input": ["StatefulPartitionedCall/se_mobilefacenet/model/stack1_block2_3_bn/FusedBatchNormV3", "StatefulPartitionedCall/se_mobilefacenet/model/activation_1/Sigmoid"], "attr": {"T": {"type": "DT_HALF"}}}, {"name": "StatefulPartitionedCall/se_mobilefacenet/model/add/add", "op": "AddV2", "input": ["StatefulPartitionedCall/se_mobilefacenet/model/stack1_block1_se_out/mul", "StatefulPartitionedCall/se_mobilefacenet/model/stack1_block2_se_out/mul"], "attr": {"T": {"type": "DT_HALF"}}}, {"name": "StatefulPartitionedCall/se_mobilefacenet/model/stack1_block3_1_conv/Conv2D", "op": "Conv2D", "input": ["StatefulPartitionedCall/se_mobilefacenet/model/add/add", "StatefulPartitionedCall/se_mobilefacenet/model/stack1_block3_1_conv/Conv2D_weights"], "device": "/device:CPU:0", "attr": {"padding": {"s": "U0FNRQ=="}, "data_format": {"s": "TkhXQw=="}, "use_cudnn_on_gpu": {"b": true}, "strides": {"list": {"i": ["1", "1", "1", "1"]}}, "T": {"type": "DT_HALF"}, "explicit_paddings": {"list": {}}, "dilations": {"list": {"i": ["1", "1", "1", "1"]}}}}, {"name": "StatefulPartitionedCall/se_mobilefacenet/model/stack1_block3_1_bn/FusedBatchNormV3", "op": "BiasAdd", "input": ["StatefulPartitionedCall/se_mobilefacenet/model/stack1_block3_1_conv/Conv2D", "StatefulPartitionedCall/se_mobilefacenet/model/stack1_block3_1_conv/Conv2D_bn_offset"], "attr": {"data_format": {"s": "TkhXQw=="}, "T": {"type": "DT_HALF"}}}, {"name": "StatefulPartitionedCall/se_mobilefacenet/model/stack1_block3_1_prelu/Relu", "op": "Prelu", "input": ["StatefulPartitionedCall/se_mobilefacenet/model/stack1_block3_1_bn/FusedBatchNormV3", "StatefulPartitionedCall/se_mobilefacenet/model/stack1_block3_1_prelu/Neg"]}, {"name": "StatefulPartitionedCall/se_mobilefacenet/model/stack1_block3_2_depthwise/depthwise", "op": "FusedDepthwiseConv2dNative", "input": ["StatefulPartitionedCall/se_mobilefacenet/model/stack1_block3_1_prelu/Relu", "StatefulPartitionedCall/se_mobilefacenet/model/stack1_block3_2_depthwise/depthwise_weights", "StatefulPartitionedCall/se_mobilefacenet/model/stack1_block3_2_depthwise/depthwise_bn_offset", "StatefulPartitionedCall/se_mobilefacenet/model/stack1_block3_2_prelu/Neg"], "attr": {"padding": {"s": "U0FNRQ=="}, "data_format": {"s": "TkhXQw=="}, "strides": {"list": {"i": ["1", "1", "1", "1"]}}, "num_args": {"i": "2"}, "fused_ops": {"list": {"s": ["Qmlhc0FkZA==", "UHJlbHU="]}}, "T": {"type": "DT_HALF"}, "explicit_paddings": {"list": {}}, "dilations": {"list": {"i": ["1", "1", "1", "1"]}}}}, {"name": "StatefulPartitionedCall/se_mobilefacenet/model/stack1_block3_3_conv/Conv2D", "op": "Conv2D", "input": ["StatefulPartitionedCall/se_mobilefacenet/model/stack1_block3_2_depthwise/depthwise", "StatefulPartitionedCall/se_mobilefacenet/model/stack1_block3_3_conv/Conv2D_weights"], "device": "/device:CPU:0", "attr": {"padding": {"s": "U0FNRQ=="}, "data_format": {"s": "TkhXQw=="}, "strides": {"list": {"i": ["1", "1", "1", "1"]}}, "use_cudnn_on_gpu": {"b": true}, "T": {"type": "DT_HALF"}, "explicit_paddings": {"list": {}}, "dilations": {"list": {"i": ["1", "1", "1", "1"]}}}}, {"name": "StatefulPartitionedCall/se_mobilefacenet/model/stack1_block3_3_bn/FusedBatchNormV3", "op": "BiasAdd", "input": ["StatefulPartitionedCall/se_mobilefacenet/model/stack1_block3_3_conv/Conv2D", "StatefulPartitionedCall/se_mobilefacenet/model/stack1_block3_3_conv/Conv2D_bn_offset"], "attr": {"data_format": {"s": "TkhXQw=="}, "T": {"type": "DT_HALF"}}}, {"name": "StatefulPartitionedCall/se_mobilefacenet/model/global_average_pooling2d_2/Mean", "op": "Mean", "input": ["StatefulPartitionedCall/se_mobilefacenet/model/stack1_block3_3_bn/FusedBatchNormV3", "StatefulPartitionedCall/se_mobilefacenet/model/global_average_pooling2d_2/Mean/reduction_indices"], "attr": {"Tidx": {"type": "DT_INT32"}, "T": {"type": "DT_HALF"}, "keep_dims": {"b": true}}}, {"name": "StatefulPartitionedCall/se_mobilefacenet/model/stack1_block3_se_1_conv/Conv2D", "op": "Conv2D", "input": ["StatefulPartitionedCall/se_mobilefacenet/model/global_average_pooling2d_2/Mean", "StatefulPartitionedCall/se_mobilefacenet/model/stack1_block3_se_1_conv/Conv2D/Cast"], "device": "/device:CPU:0", "attr": {"padding": {"s": "VkFMSUQ="}, "data_format": {"s": "TkhXQw=="}, "strides": {"list": {"i": ["1", "1", "1", "1"]}}, "use_cudnn_on_gpu": {"b": true}, "T": {"type": "DT_HALF"}, "explicit_paddings": {"list": {}}, "dilations": {"list": {"i": ["1", "1", "1", "1"]}}}}, {"name": "StatefulPartitionedCall/se_mobilefacenet/model/stack1_block3_se_1_conv/BiasAdd", "op": "BiasAdd", "input": ["StatefulPartitionedCall/se_mobilefacenet/model/stack1_block3_se_1_conv/Conv2D", "StatefulPartitionedCall/se_mobilefacenet/model/stack1_block3_se_1_conv/BiasAdd/Cast"], "attr": {"data_format": {"s": "TkhXQw=="}, "T": {"type": "DT_HALF"}}}, {"name": "StatefulPartitionedCall/se_mobilefacenet/model/stack1_block3_se_prelu/Relu", "op": "Prelu", "input": ["StatefulPartitionedCall/se_mobilefacenet/model/stack1_block3_se_1_conv/BiasAdd", "StatefulPartitionedCall/se_mobilefacenet/model/stack1_block3_se_prelu/Neg"]}, {"name": "StatefulPartitionedCall/se_mobilefacenet/model/stack1_block3_se_2_conv/Conv2D", "op": "Conv2D", "input": ["StatefulPartitionedCall/se_mobilefacenet/model/stack1_block3_se_prelu/Relu", "StatefulPartitionedCall/se_mobilefacenet/model/stack1_block3_se_2_conv/Conv2D/Cast"], "device": "/device:CPU:0", "attr": {"padding": {"s": "VkFMSUQ="}, "data_format": {"s": "TkhXQw=="}, "strides": {"list": {"i": ["1", "1", "1", "1"]}}, "use_cudnn_on_gpu": {"b": true}, "T": {"type": "DT_HALF"}, "explicit_paddings": {"list": {}}, "dilations": {"list": {"i": ["1", "1", "1", "1"]}}}}, {"name": "StatefulPartitionedCall/se_mobilefacenet/model/stack1_block3_se_2_conv/BiasAdd", "op": "BiasAdd", "input": ["StatefulPartitionedCall/se_mobilefacenet/model/stack1_block3_se_2_conv/Conv2D", "StatefulPartitionedCall/se_mobilefacenet/model/stack1_block3_se_2_conv/BiasAdd/Cast"], "attr": {"data_format": {"s": "TkhXQw=="}, "T": {"type": "DT_HALF"}}}, {"name": "StatefulPartitionedCall/se_mobilefacenet/model/activation_2/Sigmoid", "op": "Sigmoid", "input": ["StatefulPartitionedCall/se_mobilefacenet/model/stack1_block3_se_2_conv/BiasAdd"], "attr": {"T": {"type": "DT_HALF"}}}, {"name": "StatefulPartitionedCall/se_mobilefacenet/model/stack1_block3_se_out/mul", "op": "Mul", "input": ["StatefulPartitionedCall/se_mobilefacenet/model/stack1_block3_3_bn/FusedBatchNormV3", "StatefulPartitionedCall/se_mobilefacenet/model/activation_2/Sigmoid"], "attr": {"T": {"type": "DT_HALF"}}}, {"name": "StatefulPartitionedCall/se_mobilefacenet/model/add_1/add", "op": "AddV2", "input": ["StatefulPartitionedCall/se_mobilefacenet/model/add/add", "StatefulPartitionedCall/se_mobilefacenet/model/stack1_block3_se_out/mul"], "attr": {"T": {"type": "DT_HALF"}}}, {"name": "StatefulPartitionedCall/se_mobilefacenet/model/stack1_block4_1_conv/Conv2D", "op": "Conv2D", "input": ["StatefulPartitionedCall/se_mobilefacenet/model/add_1/add", "StatefulPartitionedCall/se_mobilefacenet/model/stack1_block4_1_conv/Conv2D_weights"], "device": "/device:CPU:0", "attr": {"padding": {"s": "U0FNRQ=="}, "data_format": {"s": "TkhXQw=="}, "use_cudnn_on_gpu": {"b": true}, "strides": {"list": {"i": ["1", "1", "1", "1"]}}, "T": {"type": "DT_HALF"}, "explicit_paddings": {"list": {}}, "dilations": {"list": {"i": ["1", "1", "1", "1"]}}}}, {"name": "StatefulPartitionedCall/se_mobilefacenet/model/stack1_block4_1_bn/FusedBatchNormV3", "op": "BiasAdd", "input": ["StatefulPartitionedCall/se_mobilefacenet/model/stack1_block4_1_conv/Conv2D", "StatefulPartitionedCall/se_mobilefacenet/model/stack1_block4_1_conv/Conv2D_bn_offset"], "attr": {"data_format": {"s": "TkhXQw=="}, "T": {"type": "DT_HALF"}}}, {"name": "StatefulPartitionedCall/se_mobilefacenet/model/stack1_block4_1_prelu/Relu", "op": "Prelu", "input": ["StatefulPartitionedCall/se_mobilefacenet/model/stack1_block4_1_bn/FusedBatchNormV3", "StatefulPartitionedCall/se_mobilefacenet/model/stack1_block4_1_prelu/Neg"]}, {"name": "StatefulPartitionedCall/se_mobilefacenet/model/stack1_block4_2_depthwise/depthwise", "op": "FusedDepthwiseConv2dNative", "input": ["StatefulPartitionedCall/se_mobilefacenet/model/stack1_block4_1_prelu/Relu", "StatefulPartitionedCall/se_mobilefacenet/model/stack1_block4_2_depthwise/depthwise_weights", "StatefulPartitionedCall/se_mobilefacenet/model/stack1_block4_2_depthwise/depthwise_bn_offset", "StatefulPartitionedCall/se_mobilefacenet/model/stack1_block4_2_prelu/Neg"], "attr": {"padding": {"s": "U0FNRQ=="}, "data_format": {"s": "TkhXQw=="}, "strides": {"list": {"i": ["1", "1", "1", "1"]}}, "num_args": {"i": "2"}, "fused_ops": {"list": {"s": ["Qmlhc0FkZA==", "UHJlbHU="]}}, "T": {"type": "DT_HALF"}, "explicit_paddings": {"list": {}}, "dilations": {"list": {"i": ["1", "1", "1", "1"]}}}}, {"name": "StatefulPartitionedCall/se_mobilefacenet/model/stack1_block4_3_conv/Conv2D", "op": "Conv2D", "input": ["StatefulPartitionedCall/se_mobilefacenet/model/stack1_block4_2_depthwise/depthwise", "StatefulPartitionedCall/se_mobilefacenet/model/stack1_block4_3_conv/Conv2D_weights"], "device": "/device:CPU:0", "attr": {"padding": {"s": "U0FNRQ=="}, "data_format": {"s": "TkhXQw=="}, "use_cudnn_on_gpu": {"b": true}, "strides": {"list": {"i": ["1", "1", "1", "1"]}}, "T": {"type": "DT_HALF"}, "explicit_paddings": {"list": {}}, "dilations": {"list": {"i": ["1", "1", "1", "1"]}}}}, {"name": "StatefulPartitionedCall/se_mobilefacenet/model/stack1_block4_3_bn/FusedBatchNormV3", "op": "BiasAdd", "input": ["StatefulPartitionedCall/se_mobilefacenet/model/stack1_block4_3_conv/Conv2D", "StatefulPartitionedCall/se_mobilefacenet/model/stack1_block4_3_conv/Conv2D_bn_offset"], "attr": {"data_format": {"s": "TkhXQw=="}, "T": {"type": "DT_HALF"}}}, {"name": "StatefulPartitionedCall/se_mobilefacenet/model/global_average_pooling2d_3/Mean", "op": "Mean", "input": ["StatefulPartitionedCall/se_mobilefacenet/model/stack1_block4_3_bn/FusedBatchNormV3", "StatefulPartitionedCall/se_mobilefacenet/model/global_average_pooling2d_3/Mean/reduction_indices"], "attr": {"T": {"type": "DT_HALF"}, "Tidx": {"type": "DT_INT32"}, "keep_dims": {"b": true}}}, {"name": "StatefulPartitionedCall/se_mobilefacenet/model/stack1_block4_se_1_conv/Conv2D", "op": "Conv2D", "input": ["StatefulPartitionedCall/se_mobilefacenet/model/global_average_pooling2d_3/Mean", "StatefulPartitionedCall/se_mobilefacenet/model/stack1_block4_se_1_conv/Conv2D/Cast"], "device": "/device:CPU:0", "attr": {"padding": {"s": "VkFMSUQ="}, "data_format": {"s": "TkhXQw=="}, "strides": {"list": {"i": ["1", "1", "1", "1"]}}, "use_cudnn_on_gpu": {"b": true}, "T": {"type": "DT_HALF"}, "explicit_paddings": {"list": {}}, "dilations": {"list": {"i": ["1", "1", "1", "1"]}}}}, {"name": "StatefulPartitionedCall/se_mobilefacenet/model/stack1_block4_se_1_conv/BiasAdd", "op": "BiasAdd", "input": ["StatefulPartitionedCall/se_mobilefacenet/model/stack1_block4_se_1_conv/Conv2D", "StatefulPartitionedCall/se_mobilefacenet/model/stack1_block4_se_1_conv/BiasAdd/Cast"], "attr": {"data_format": {"s": "TkhXQw=="}, "T": {"type": "DT_HALF"}}}, {"name": "StatefulPartitionedCall/se_mobilefacenet/model/stack1_block4_se_prelu/Relu", "op": "Prelu", "input": ["StatefulPartitionedCall/se_mobilefacenet/model/stack1_block4_se_1_conv/BiasAdd", "StatefulPartitionedCall/se_mobilefacenet/model/stack1_block4_se_prelu/Neg"]}, {"name": "StatefulPartitionedCall/se_mobilefacenet/model/stack1_block4_se_2_conv/Conv2D", "op": "Conv2D", "input": ["StatefulPartitionedCall/se_mobilefacenet/model/stack1_block4_se_prelu/Relu", "StatefulPartitionedCall/se_mobilefacenet/model/stack1_block4_se_2_conv/Conv2D/Cast"], "device": "/device:CPU:0", "attr": {"padding": {"s": "VkFMSUQ="}, "data_format": {"s": "TkhXQw=="}, "use_cudnn_on_gpu": {"b": true}, "strides": {"list": {"i": ["1", "1", "1", "1"]}}, "T": {"type": "DT_HALF"}, "explicit_paddings": {"list": {}}, "dilations": {"list": {"i": ["1", "1", "1", "1"]}}}}, {"name": "StatefulPartitionedCall/se_mobilefacenet/model/stack1_block4_se_2_conv/BiasAdd", "op": "BiasAdd", "input": ["StatefulPartitionedCall/se_mobilefacenet/model/stack1_block4_se_2_conv/Conv2D", "StatefulPartitionedCall/se_mobilefacenet/model/stack1_block4_se_2_conv/BiasAdd/Cast"], "attr": {"data_format": {"s": "TkhXQw=="}, "T": {"type": "DT_HALF"}}}, {"name": "StatefulPartitionedCall/se_mobilefacenet/model/activation_3/Sigmoid", "op": "Sigmoid", "input": ["StatefulPartitionedCall/se_mobilefacenet/model/stack1_block4_se_2_conv/BiasAdd"], "attr": {"T": {"type": "DT_HALF"}}}, {"name": "StatefulPartitionedCall/se_mobilefacenet/model/stack1_block4_se_out/mul", "op": "Mul", "input": ["StatefulPartitionedCall/se_mobilefacenet/model/stack1_block4_3_bn/FusedBatchNormV3", "StatefulPartitionedCall/se_mobilefacenet/model/activation_3/Sigmoid"], "attr": {"T": {"type": "DT_HALF"}}}, {"name": "StatefulPartitionedCall/se_mobilefacenet/model/add_2/add", "op": "AddV2", "input": ["StatefulPartitionedCall/se_mobilefacenet/model/add_1/add", "StatefulPartitionedCall/se_mobilefacenet/model/stack1_block4_se_out/mul"], "attr": {"T": {"type": "DT_HALF"}}}, {"name": "StatefulPartitionedCall/se_mobilefacenet/model/stack1_block5_1_conv/Conv2D", "op": "Conv2D", "input": ["StatefulPartitionedCall/se_mobilefacenet/model/add_2/add", "StatefulPartitionedCall/se_mobilefacenet/model/stack1_block5_1_conv/Conv2D_weights"], "device": "/device:CPU:0", "attr": {"padding": {"s": "U0FNRQ=="}, "data_format": {"s": "TkhXQw=="}, "strides": {"list": {"i": ["1", "1", "1", "1"]}}, "use_cudnn_on_gpu": {"b": true}, "T": {"type": "DT_HALF"}, "explicit_paddings": {"list": {}}, "dilations": {"list": {"i": ["1", "1", "1", "1"]}}}}, {"name": "StatefulPartitionedCall/se_mobilefacenet/model/stack1_block5_1_bn/FusedBatchNormV3", "op": "BiasAdd", "input": ["StatefulPartitionedCall/se_mobilefacenet/model/stack1_block5_1_conv/Conv2D", "StatefulPartitionedCall/se_mobilefacenet/model/stack1_block5_1_conv/Conv2D_bn_offset"], "attr": {"data_format": {"s": "TkhXQw=="}, "T": {"type": "DT_HALF"}}}, {"name": "StatefulPartitionedCall/se_mobilefacenet/model/stack1_block5_1_prelu/Relu", "op": "Prelu", "input": ["StatefulPartitionedCall/se_mobilefacenet/model/stack1_block5_1_bn/FusedBatchNormV3", "StatefulPartitionedCall/se_mobilefacenet/model/stack1_block5_1_prelu/Neg"]}, {"name": "StatefulPartitionedCall/se_mobilefacenet/model/stack1_block5_2_depthwise/depthwise", "op": "FusedDepthwiseConv2dNative", "input": ["StatefulPartitionedCall/se_mobilefacenet/model/stack1_block5_1_prelu/Relu", "StatefulPartitionedCall/se_mobilefacenet/model/stack1_block5_2_depthwise/depthwise_weights", "StatefulPartitionedCall/se_mobilefacenet/model/stack1_block5_2_depthwise/depthwise_bn_offset", "StatefulPartitionedCall/se_mobilefacenet/model/stack1_block5_2_prelu/Neg"], "attr": {"padding": {"s": "U0FNRQ=="}, "data_format": {"s": "TkhXQw=="}, "strides": {"list": {"i": ["1", "1", "1", "1"]}}, "num_args": {"i": "2"}, "fused_ops": {"list": {"s": ["Qmlhc0FkZA==", "UHJlbHU="]}}, "T": {"type": "DT_HALF"}, "explicit_paddings": {"list": {}}, "dilations": {"list": {"i": ["1", "1", "1", "1"]}}}}, {"name": "StatefulPartitionedCall/se_mobilefacenet/model/stack1_block5_3_conv/Conv2D", "op": "Conv2D", "input": ["StatefulPartitionedCall/se_mobilefacenet/model/stack1_block5_2_depthwise/depthwise", "StatefulPartitionedCall/se_mobilefacenet/model/stack1_block5_3_conv/Conv2D_weights"], "device": "/device:CPU:0", "attr": {"padding": {"s": "U0FNRQ=="}, "data_format": {"s": "TkhXQw=="}, "strides": {"list": {"i": ["1", "1", "1", "1"]}}, "use_cudnn_on_gpu": {"b": true}, "T": {"type": "DT_HALF"}, "explicit_paddings": {"list": {}}, "dilations": {"list": {"i": ["1", "1", "1", "1"]}}}}, {"name": "StatefulPartitionedCall/se_mobilefacenet/model/stack1_block5_3_bn/FusedBatchNormV3", "op": "BiasAdd", "input": ["StatefulPartitionedCall/se_mobilefacenet/model/stack1_block5_3_conv/Conv2D", "StatefulPartitionedCall/se_mobilefacenet/model/stack1_block5_3_conv/Conv2D_bn_offset"], "attr": {"data_format": {"s": "TkhXQw=="}, "T": {"type": "DT_HALF"}}}, {"name": "StatefulPartitionedCall/se_mobilefacenet/model/global_average_pooling2d_4/Mean", "op": "Mean", "input": ["StatefulPartitionedCall/se_mobilefacenet/model/stack1_block5_3_bn/FusedBatchNormV3", "StatefulPartitionedCall/se_mobilefacenet/model/global_average_pooling2d_4/Mean/reduction_indices"], "attr": {"T": {"type": "DT_HALF"}, "Tidx": {"type": "DT_INT32"}, "keep_dims": {"b": true}}}, {"name": "StatefulPartitionedCall/se_mobilefacenet/model/stack1_block5_se_1_conv/Conv2D", "op": "Conv2D", "input": ["StatefulPartitionedCall/se_mobilefacenet/model/global_average_pooling2d_4/Mean", "StatefulPartitionedCall/se_mobilefacenet/model/stack1_block5_se_1_conv/Conv2D/Cast"], "device": "/device:CPU:0", "attr": {"padding": {"s": "VkFMSUQ="}, "data_format": {"s": "TkhXQw=="}, "use_cudnn_on_gpu": {"b": true}, "strides": {"list": {"i": ["1", "1", "1", "1"]}}, "T": {"type": "DT_HALF"}, "explicit_paddings": {"list": {}}, "dilations": {"list": {"i": ["1", "1", "1", "1"]}}}}, {"name": "StatefulPartitionedCall/se_mobilefacenet/model/stack1_block5_se_1_conv/BiasAdd", "op": "BiasAdd", "input": ["StatefulPartitionedCall/se_mobilefacenet/model/stack1_block5_se_1_conv/Conv2D", "StatefulPartitionedCall/se_mobilefacenet/model/stack1_block5_se_1_conv/BiasAdd/Cast"], "attr": {"data_format": {"s": "TkhXQw=="}, "T": {"type": "DT_HALF"}}}, {"name": "StatefulPartitionedCall/se_mobilefacenet/model/stack1_block5_se_prelu/Relu", "op": "Prelu", "input": ["StatefulPartitionedCall/se_mobilefacenet/model/stack1_block5_se_1_conv/BiasAdd", "StatefulPartitionedCall/se_mobilefacenet/model/stack1_block5_se_prelu/Neg"]}, {"name": "StatefulPartitionedCall/se_mobilefacenet/model/stack1_block5_se_2_conv/Conv2D", "op": "Conv2D", "input": ["StatefulPartitionedCall/se_mobilefacenet/model/stack1_block5_se_prelu/Relu", "StatefulPartitionedCall/se_mobilefacenet/model/stack1_block5_se_2_conv/Conv2D/Cast"], "device": "/device:CPU:0", "attr": {"padding": {"s": "VkFMSUQ="}, "data_format": {"s": "TkhXQw=="}, "use_cudnn_on_gpu": {"b": true}, "strides": {"list": {"i": ["1", "1", "1", "1"]}}, "T": {"type": "DT_HALF"}, "explicit_paddings": {"list": {}}, "dilations": {"list": {"i": ["1", "1", "1", "1"]}}}}, {"name": "StatefulPartitionedCall/se_mobilefacenet/model/stack1_block5_se_2_conv/BiasAdd", "op": "BiasAdd", "input": ["StatefulPartitionedCall/se_mobilefacenet/model/stack1_block5_se_2_conv/Conv2D", "StatefulPartitionedCall/se_mobilefacenet/model/stack1_block5_se_2_conv/BiasAdd/Cast"], "attr": {"data_format": {"s": "TkhXQw=="}, "T": {"type": "DT_HALF"}}}, {"name": "StatefulPartitionedCall/se_mobilefacenet/model/activation_4/Sigmoid", "op": "Sigmoid", "input": ["StatefulPartitionedCall/se_mobilefacenet/model/stack1_block5_se_2_conv/BiasAdd"], "attr": {"T": {"type": "DT_HALF"}}}, {"name": "StatefulPartitionedCall/se_mobilefacenet/model/stack1_block5_se_out/mul", "op": "Mul", "input": ["StatefulPartitionedCall/se_mobilefacenet/model/stack1_block5_3_bn/FusedBatchNormV3", "StatefulPartitionedCall/se_mobilefacenet/model/activation_4/Sigmoid"], "attr": {"T": {"type": "DT_HALF"}}}, {"name": "StatefulPartitionedCall/se_mobilefacenet/model/add_3/add", "op": "AddV2", "input": ["StatefulPartitionedCall/se_mobilefacenet/model/add_2/add", "StatefulPartitionedCall/se_mobilefacenet/model/stack1_block5_se_out/mul"], "attr": {"T": {"type": "DT_HALF"}}}, {"name": "StatefulPartitionedCall/se_mobilefacenet/model/stack2_block1_1_conv/Conv2D", "op": "Conv2D", "input": ["StatefulPartitionedCall/se_mobilefacenet/model/add_3/add", "StatefulPartitionedCall/se_mobilefacenet/model/stack2_block1_1_conv/Conv2D_weights"], "device": "/device:CPU:0", "attr": {"padding": {"s": "U0FNRQ=="}, "data_format": {"s": "TkhXQw=="}, "strides": {"list": {"i": ["1", "1", "1", "1"]}}, "use_cudnn_on_gpu": {"b": true}, "T": {"type": "DT_HALF"}, "explicit_paddings": {"list": {}}, "dilations": {"list": {"i": ["1", "1", "1", "1"]}}}}, {"name": "StatefulPartitionedCall/se_mobilefacenet/model/stack2_block1_1_bn/FusedBatchNormV3", "op": "BiasAdd", "input": ["StatefulPartitionedCall/se_mobilefacenet/model/stack2_block1_1_conv/Conv2D", "StatefulPartitionedCall/se_mobilefacenet/model/stack2_block1_1_conv/Conv2D_bn_offset"], "attr": {"data_format": {"s": "TkhXQw=="}, "T": {"type": "DT_HALF"}}}, {"name": "StatefulPartitionedCall/se_mobilefacenet/model/stack2_block1_1_prelu/Relu", "op": "Prelu", "input": ["StatefulPartitionedCall/se_mobilefacenet/model/stack2_block1_1_bn/FusedBatchNormV3", "StatefulPartitionedCall/se_mobilefacenet/model/stack2_block1_1_prelu/Neg"]}, {"name": "StatefulPartitionedCall/se_mobilefacenet/model/stack2_block1_2_depthwise/depthwise", "op": "FusedDepthwiseConv2dNative", "input": ["StatefulPartitionedCall/se_mobilefacenet/model/stack2_block1_1_prelu/Relu", "StatefulPartitionedCall/se_mobilefacenet/model/stack2_block1_2_depthwise/depthwise_weights", "StatefulPartitionedCall/se_mobilefacenet/model/stack2_block1_2_depthwise/depthwise_bn_offset", "StatefulPartitionedCall/se_mobilefacenet/model/stack2_block1_2_prelu/Neg"], "attr": {"padding": {"s": "U0FNRQ=="}, "data_format": {"s": "TkhXQw=="}, "strides": {"list": {"i": ["1", "2", "2", "1"]}}, "num_args": {"i": "2"}, "fused_ops": {"list": {"s": ["Qmlhc0FkZA==", "UHJlbHU="]}}, "T": {"type": "DT_HALF"}, "explicit_paddings": {"list": {}}, "dilations": {"list": {"i": ["1", "1", "1", "1"]}}}}, {"name": "StatefulPartitionedCall/se_mobilefacenet/model/stack2_block1_3_conv/Conv2D", "op": "Conv2D", "input": ["StatefulPartitionedCall/se_mobilefacenet/model/stack2_block1_2_depthwise/depthwise", "StatefulPartitionedCall/se_mobilefacenet/model/stack2_block1_3_conv/Conv2D_weights"], "device": "/device:CPU:0", "attr": {"padding": {"s": "U0FNRQ=="}, "data_format": {"s": "TkhXQw=="}, "use_cudnn_on_gpu": {"b": true}, "strides": {"list": {"i": ["1", "1", "1", "1"]}}, "T": {"type": "DT_HALF"}, "explicit_paddings": {"list": {}}, "dilations": {"list": {"i": ["1", "1", "1", "1"]}}}}, {"name": "StatefulPartitionedCall/se_mobilefacenet/model/stack2_block1_3_bn/FusedBatchNormV3", "op": "BiasAdd", "input": ["StatefulPartitionedCall/se_mobilefacenet/model/stack2_block1_3_conv/Conv2D", "StatefulPartitionedCall/se_mobilefacenet/model/stack2_block1_3_conv/Conv2D_bn_offset"], "attr": {"data_format": {"s": "TkhXQw=="}, "T": {"type": "DT_HALF"}}}, {"name": "StatefulPartitionedCall/se_mobilefacenet/model/global_average_pooling2d_5/Mean", "op": "Mean", "input": ["StatefulPartitionedCall/se_mobilefacenet/model/stack2_block1_3_bn/FusedBatchNormV3", "StatefulPartitionedCall/se_mobilefacenet/model/global_average_pooling2d_5/Mean/reduction_indices"], "attr": {"Tidx": {"type": "DT_INT32"}, "T": {"type": "DT_HALF"}, "keep_dims": {"b": true}}}, {"name": "StatefulPartitionedCall/se_mobilefacenet/model/stack2_block1_se_1_conv/Conv2D", "op": "Conv2D", "input": ["StatefulPartitionedCall/se_mobilefacenet/model/global_average_pooling2d_5/Mean", "StatefulPartitionedCall/se_mobilefacenet/model/stack2_block1_se_1_conv/Conv2D/Cast"], "device": "/device:CPU:0", "attr": {"padding": {"s": "VkFMSUQ="}, "data_format": {"s": "TkhXQw=="}, "strides": {"list": {"i": ["1", "1", "1", "1"]}}, "use_cudnn_on_gpu": {"b": true}, "T": {"type": "DT_HALF"}, "explicit_paddings": {"list": {}}, "dilations": {"list": {"i": ["1", "1", "1", "1"]}}}}, {"name": "StatefulPartitionedCall/se_mobilefacenet/model/stack2_block1_se_1_conv/BiasAdd", "op": "BiasAdd", "input": ["StatefulPartitionedCall/se_mobilefacenet/model/stack2_block1_se_1_conv/Conv2D", "StatefulPartitionedCall/se_mobilefacenet/model/stack2_block1_se_1_conv/BiasAdd/Cast"], "attr": {"data_format": {"s": "TkhXQw=="}, "T": {"type": "DT_HALF"}}}, {"name": "StatefulPartitionedCall/se_mobilefacenet/model/stack2_block1_se_prelu/Relu", "op": "Prelu", "input": ["StatefulPartitionedCall/se_mobilefacenet/model/stack2_block1_se_1_conv/BiasAdd", "StatefulPartitionedCall/se_mobilefacenet/model/stack2_block1_se_prelu/Neg"]}, {"name": "StatefulPartitionedCall/se_mobilefacenet/model/stack2_block1_se_2_conv/Conv2D", "op": "Conv2D", "input": ["StatefulPartitionedCall/se_mobilefacenet/model/stack2_block1_se_prelu/Relu", "StatefulPartitionedCall/se_mobilefacenet/model/stack2_block1_se_2_conv/Conv2D/Cast"], "device": "/device:CPU:0", "attr": {"padding": {"s": "VkFMSUQ="}, "data_format": {"s": "TkhXQw=="}, "strides": {"list": {"i": ["1", "1", "1", "1"]}}, "use_cudnn_on_gpu": {"b": true}, "T": {"type": "DT_HALF"}, "explicit_paddings": {"list": {}}, "dilations": {"list": {"i": ["1", "1", "1", "1"]}}}}, {"name": "StatefulPartitionedCall/se_mobilefacenet/model/stack2_block1_se_2_conv/BiasAdd", "op": "BiasAdd", "input": ["StatefulPartitionedCall/se_mobilefacenet/model/stack2_block1_se_2_conv/Conv2D", "StatefulPartitionedCall/se_mobilefacenet/model/stack2_block1_se_2_conv/BiasAdd/Cast"], "attr": {"data_format": {"s": "TkhXQw=="}, "T": {"type": "DT_HALF"}}}, {"name": "StatefulPartitionedCall/se_mobilefacenet/model/activation_5/Sigmoid", "op": "Sigmoid", "input": ["StatefulPartitionedCall/se_mobilefacenet/model/stack2_block1_se_2_conv/BiasAdd"], "attr": {"T": {"type": "DT_HALF"}}}, {"name": "StatefulPartitionedCall/se_mobilefacenet/model/stack2_block1_se_out/mul", "op": "Mul", "input": ["StatefulPartitionedCall/se_mobilefacenet/model/stack2_block1_3_bn/FusedBatchNormV3", "StatefulPartitionedCall/se_mobilefacenet/model/activation_5/Sigmoid"], "attr": {"T": {"type": "DT_HALF"}}}, {"name": "StatefulPartitionedCall/se_mobilefacenet/model/stack3_block1_1_conv/Conv2D", "op": "Conv2D", "input": ["StatefulPartitionedCall/se_mobilefacenet/model/stack2_block1_se_out/mul", "StatefulPartitionedCall/se_mobilefacenet/model/stack3_block1_1_conv/Conv2D_weights"], "device": "/device:CPU:0", "attr": {"padding": {"s": "U0FNRQ=="}, "data_format": {"s": "TkhXQw=="}, "use_cudnn_on_gpu": {"b": true}, "strides": {"list": {"i": ["1", "1", "1", "1"]}}, "T": {"type": "DT_HALF"}, "explicit_paddings": {"list": {}}, "dilations": {"list": {"i": ["1", "1", "1", "1"]}}}}, {"name": "StatefulPartitionedCall/se_mobilefacenet/model/stack3_block1_1_bn/FusedBatchNormV3", "op": "BiasAdd", "input": ["StatefulPartitionedCall/se_mobilefacenet/model/stack3_block1_1_conv/Conv2D", "StatefulPartitionedCall/se_mobilefacenet/model/stack3_block1_1_conv/Conv2D_bn_offset"], "attr": {"data_format": {"s": "TkhXQw=="}, "T": {"type": "DT_HALF"}}}, {"name": "StatefulPartitionedCall/se_mobilefacenet/model/stack3_block1_1_prelu/Relu", "op": "Prelu", "input": ["StatefulPartitionedCall/se_mobilefacenet/model/stack3_block1_1_bn/FusedBatchNormV3", "StatefulPartitionedCall/se_mobilefacenet/model/stack3_block1_1_prelu/Neg"]}, {"name": "StatefulPartitionedCall/se_mobilefacenet/model/stack3_block1_2_depthwise/depthwise", "op": "FusedDepthwiseConv2dNative", "input": ["StatefulPartitionedCall/se_mobilefacenet/model/stack3_block1_1_prelu/Relu", "StatefulPartitionedCall/se_mobilefacenet/model/stack3_block1_2_depthwise/depthwise_weights", "StatefulPartitionedCall/se_mobilefacenet/model/stack3_block1_2_depthwise/depthwise_bn_offset", "StatefulPartitionedCall/se_mobilefacenet/model/stack3_block1_2_prelu/Neg"], "attr": {"padding": {"s": "U0FNRQ=="}, "data_format": {"s": "TkhXQw=="}, "strides": {"list": {"i": ["1", "1", "1", "1"]}}, "num_args": {"i": "2"}, "fused_ops": {"list": {"s": ["Qmlhc0FkZA==", "UHJlbHU="]}}, "T": {"type": "DT_HALF"}, "explicit_paddings": {"list": {}}, "dilations": {"list": {"i": ["1", "1", "1", "1"]}}}}, {"name": "StatefulPartitionedCall/se_mobilefacenet/model/stack3_block1_3_conv/Conv2D", "op": "Conv2D", "input": ["StatefulPartitionedCall/se_mobilefacenet/model/stack3_block1_2_depthwise/depthwise", "StatefulPartitionedCall/se_mobilefacenet/model/stack3_block1_3_conv/Conv2D_weights"], "device": "/device:CPU:0", "attr": {"padding": {"s": "U0FNRQ=="}, "data_format": {"s": "TkhXQw=="}, "strides": {"list": {"i": ["1", "1", "1", "1"]}}, "use_cudnn_on_gpu": {"b": true}, "T": {"type": "DT_HALF"}, "explicit_paddings": {"list": {}}, "dilations": {"list": {"i": ["1", "1", "1", "1"]}}}}, {"name": "StatefulPartitionedCall/se_mobilefacenet/model/stack3_block1_3_bn/FusedBatchNormV3", "op": "BiasAdd", "input": ["StatefulPartitionedCall/se_mobilefacenet/model/stack3_block1_3_conv/Conv2D", "StatefulPartitionedCall/se_mobilefacenet/model/stack3_block1_3_conv/Conv2D_bn_offset"], "attr": {"data_format": {"s": "TkhXQw=="}, "T": {"type": "DT_HALF"}}}, {"name": "StatefulPartitionedCall/se_mobilefacenet/model/global_average_pooling2d_6/Mean", "op": "Mean", "input": ["StatefulPartitionedCall/se_mobilefacenet/model/stack3_block1_3_bn/FusedBatchNormV3", "StatefulPartitionedCall/se_mobilefacenet/model/global_average_pooling2d_6/Mean/reduction_indices"], "attr": {"Tidx": {"type": "DT_INT32"}, "T": {"type": "DT_HALF"}, "keep_dims": {"b": true}}}, {"name": "StatefulPartitionedCall/se_mobilefacenet/model/stack3_block1_se_1_conv/Conv2D", "op": "Conv2D", "input": ["StatefulPartitionedCall/se_mobilefacenet/model/global_average_pooling2d_6/Mean", "StatefulPartitionedCall/se_mobilefacenet/model/stack3_block1_se_1_conv/Conv2D/Cast"], "device": "/device:CPU:0", "attr": {"padding": {"s": "VkFMSUQ="}, "data_format": {"s": "TkhXQw=="}, "use_cudnn_on_gpu": {"b": true}, "strides": {"list": {"i": ["1", "1", "1", "1"]}}, "T": {"type": "DT_HALF"}, "explicit_paddings": {"list": {}}, "dilations": {"list": {"i": ["1", "1", "1", "1"]}}}}, {"name": "StatefulPartitionedCall/se_mobilefacenet/model/stack3_block1_se_1_conv/BiasAdd", "op": "BiasAdd", "input": ["StatefulPartitionedCall/se_mobilefacenet/model/stack3_block1_se_1_conv/Conv2D", "StatefulPartitionedCall/se_mobilefacenet/model/stack3_block1_se_1_conv/BiasAdd/Cast"], "attr": {"data_format": {"s": "TkhXQw=="}, "T": {"type": "DT_HALF"}}}, {"name": "StatefulPartitionedCall/se_mobilefacenet/model/stack3_block1_se_prelu/Relu", "op": "Prelu", "input": ["StatefulPartitionedCall/se_mobilefacenet/model/stack3_block1_se_1_conv/BiasAdd", "StatefulPartitionedCall/se_mobilefacenet/model/stack3_block1_se_prelu/Neg"]}, {"name": "StatefulPartitionedCall/se_mobilefacenet/model/stack3_block1_se_2_conv/Conv2D", "op": "Conv2D", "input": ["StatefulPartitionedCall/se_mobilefacenet/model/stack3_block1_se_prelu/Relu", "StatefulPartitionedCall/se_mobilefacenet/model/stack3_block1_se_2_conv/Conv2D/Cast"], "device": "/device:CPU:0", "attr": {"padding": {"s": "VkFMSUQ="}, "data_format": {"s": "TkhXQw=="}, "strides": {"list": {"i": ["1", "1", "1", "1"]}}, "use_cudnn_on_gpu": {"b": true}, "T": {"type": "DT_HALF"}, "explicit_paddings": {"list": {}}, "dilations": {"list": {"i": ["1", "1", "1", "1"]}}}}, {"name": "StatefulPartitionedCall/se_mobilefacenet/model/stack3_block1_se_2_conv/BiasAdd", "op": "BiasAdd", "input": ["StatefulPartitionedCall/se_mobilefacenet/model/stack3_block1_se_2_conv/Conv2D", "StatefulPartitionedCall/se_mobilefacenet/model/stack3_block1_se_2_conv/BiasAdd/Cast"], "attr": {"data_format": {"s": "TkhXQw=="}, "T": {"type": "DT_HALF"}}}, {"name": "StatefulPartitionedCall/se_mobilefacenet/model/activation_6/Sigmoid", "op": "Sigmoid", "input": ["StatefulPartitionedCall/se_mobilefacenet/model/stack3_block1_se_2_conv/BiasAdd"], "attr": {"T": {"type": "DT_HALF"}}}, {"name": "StatefulPartitionedCall/se_mobilefacenet/model/stack3_block1_se_out/mul", "op": "Mul", "input": ["StatefulPartitionedCall/se_mobilefacenet/model/stack3_block1_3_bn/FusedBatchNormV3", "StatefulPartitionedCall/se_mobilefacenet/model/activation_6/Sigmoid"], "attr": {"T": {"type": "DT_HALF"}}}, {"name": "StatefulPartitionedCall/se_mobilefacenet/model/stack3_block2_1_conv/Conv2D", "op": "Conv2D", "input": ["StatefulPartitionedCall/se_mobilefacenet/model/stack3_block1_se_out/mul", "StatefulPartitionedCall/se_mobilefacenet/model/stack3_block2_1_conv/Conv2D_weights"], "device": "/device:CPU:0", "attr": {"padding": {"s": "U0FNRQ=="}, "data_format": {"s": "TkhXQw=="}, "use_cudnn_on_gpu": {"b": true}, "strides": {"list": {"i": ["1", "1", "1", "1"]}}, "T": {"type": "DT_HALF"}, "explicit_paddings": {"list": {}}, "dilations": {"list": {"i": ["1", "1", "1", "1"]}}}}, {"name": "StatefulPartitionedCall/se_mobilefacenet/model/stack3_block2_1_bn/FusedBatchNormV3", "op": "BiasAdd", "input": ["StatefulPartitionedCall/se_mobilefacenet/model/stack3_block2_1_conv/Conv2D", "StatefulPartitionedCall/se_mobilefacenet/model/stack3_block2_1_conv/Conv2D_bn_offset"], "attr": {"data_format": {"s": "TkhXQw=="}, "T": {"type": "DT_HALF"}}}, {"name": "StatefulPartitionedCall/se_mobilefacenet/model/stack3_block2_1_prelu/Relu", "op": "Prelu", "input": ["StatefulPartitionedCall/se_mobilefacenet/model/stack3_block2_1_bn/FusedBatchNormV3", "StatefulPartitionedCall/se_mobilefacenet/model/stack3_block2_1_prelu/Neg"]}, {"name": "StatefulPartitionedCall/se_mobilefacenet/model/stack3_block2_2_depthwise/depthwise", "op": "FusedDepthwiseConv2dNative", "input": ["StatefulPartitionedCall/se_mobilefacenet/model/stack3_block2_1_prelu/Relu", "StatefulPartitionedCall/se_mobilefacenet/model/stack3_block2_2_depthwise/depthwise_weights", "StatefulPartitionedCall/se_mobilefacenet/model/stack3_block2_2_depthwise/depthwise_bn_offset", "StatefulPartitionedCall/se_mobilefacenet/model/stack3_block2_2_prelu/Neg"], "attr": {"padding": {"s": "U0FNRQ=="}, "data_format": {"s": "TkhXQw=="}, "strides": {"list": {"i": ["1", "1", "1", "1"]}}, "num_args": {"i": "2"}, "fused_ops": {"list": {"s": ["Qmlhc0FkZA==", "UHJlbHU="]}}, "T": {"type": "DT_HALF"}, "explicit_paddings": {"list": {}}, "dilations": {"list": {"i": ["1", "1", "1", "1"]}}}}, {"name": "StatefulPartitionedCall/se_mobilefacenet/model/stack3_block2_3_conv/Conv2D", "op": "Conv2D", "input": ["StatefulPartitionedCall/se_mobilefacenet/model/stack3_block2_2_depthwise/depthwise", "StatefulPartitionedCall/se_mobilefacenet/model/stack3_block2_3_conv/Conv2D_weights"], "device": "/device:CPU:0", "attr": {"padding": {"s": "U0FNRQ=="}, "data_format": {"s": "TkhXQw=="}, "strides": {"list": {"i": ["1", "1", "1", "1"]}}, "use_cudnn_on_gpu": {"b": true}, "T": {"type": "DT_HALF"}, "explicit_paddings": {"list": {}}, "dilations": {"list": {"i": ["1", "1", "1", "1"]}}}}, {"name": "StatefulPartitionedCall/se_mobilefacenet/model/stack3_block2_3_bn/FusedBatchNormV3", "op": "BiasAdd", "input": ["StatefulPartitionedCall/se_mobilefacenet/model/stack3_block2_3_conv/Conv2D", "StatefulPartitionedCall/se_mobilefacenet/model/stack3_block2_3_conv/Conv2D_bn_offset"], "attr": {"data_format": {"s": "TkhXQw=="}, "T": {"type": "DT_HALF"}}}, {"name": "StatefulPartitionedCall/se_mobilefacenet/model/global_average_pooling2d_7/Mean", "op": "Mean", "input": ["StatefulPartitionedCall/se_mobilefacenet/model/stack3_block2_3_bn/FusedBatchNormV3", "StatefulPartitionedCall/se_mobilefacenet/model/global_average_pooling2d_7/Mean/reduction_indices"], "attr": {"T": {"type": "DT_HALF"}, "Tidx": {"type": "DT_INT32"}, "keep_dims": {"b": true}}}, {"name": "StatefulPartitionedCall/se_mobilefacenet/model/stack3_block2_se_1_conv/Conv2D", "op": "Conv2D", "input": ["StatefulPartitionedCall/se_mobilefacenet/model/global_average_pooling2d_7/Mean", "StatefulPartitionedCall/se_mobilefacenet/model/stack3_block2_se_1_conv/Conv2D/Cast"], "device": "/device:CPU:0", "attr": {"padding": {"s": "VkFMSUQ="}, "data_format": {"s": "TkhXQw=="}, "use_cudnn_on_gpu": {"b": true}, "strides": {"list": {"i": ["1", "1", "1", "1"]}}, "T": {"type": "DT_HALF"}, "explicit_paddings": {"list": {}}, "dilations": {"list": {"i": ["1", "1", "1", "1"]}}}}, {"name": "StatefulPartitionedCall/se_mobilefacenet/model/stack3_block2_se_1_conv/BiasAdd", "op": "BiasAdd", "input": ["StatefulPartitionedCall/se_mobilefacenet/model/stack3_block2_se_1_conv/Conv2D", "StatefulPartitionedCall/se_mobilefacenet/model/stack3_block2_se_1_conv/BiasAdd/Cast"], "attr": {"data_format": {"s": "TkhXQw=="}, "T": {"type": "DT_HALF"}}}, {"name": "StatefulPartitionedCall/se_mobilefacenet/model/stack3_block2_se_prelu/Relu", "op": "Prelu", "input": ["StatefulPartitionedCall/se_mobilefacenet/model/stack3_block2_se_1_conv/BiasAdd", "StatefulPartitionedCall/se_mobilefacenet/model/stack3_block2_se_prelu/Neg"]}, {"name": "StatefulPartitionedCall/se_mobilefacenet/model/stack3_block2_se_2_conv/Conv2D", "op": "Conv2D", "input": ["StatefulPartitionedCall/se_mobilefacenet/model/stack3_block2_se_prelu/Relu", "StatefulPartitionedCall/se_mobilefacenet/model/stack3_block2_se_2_conv/Conv2D/Cast"], "device": "/device:CPU:0", "attr": {"padding": {"s": "VkFMSUQ="}, "data_format": {"s": "TkhXQw=="}, "use_cudnn_on_gpu": {"b": true}, "strides": {"list": {"i": ["1", "1", "1", "1"]}}, "T": {"type": "DT_HALF"}, "explicit_paddings": {"list": {}}, "dilations": {"list": {"i": ["1", "1", "1", "1"]}}}}, {"name": "StatefulPartitionedCall/se_mobilefacenet/model/stack3_block2_se_2_conv/BiasAdd", "op": "BiasAdd", "input": ["StatefulPartitionedCall/se_mobilefacenet/model/stack3_block2_se_2_conv/Conv2D", "StatefulPartitionedCall/se_mobilefacenet/model/stack3_block2_se_2_conv/BiasAdd/Cast"], "attr": {"data_format": {"s": "TkhXQw=="}, "T": {"type": "DT_HALF"}}}, {"name": "StatefulPartitionedCall/se_mobilefacenet/model/activation_7/Sigmoid", "op": "Sigmoid", "input": ["StatefulPartitionedCall/se_mobilefacenet/model/stack3_block2_se_2_conv/BiasAdd"], "attr": {"T": {"type": "DT_HALF"}}}, {"name": "StatefulPartitionedCall/se_mobilefacenet/model/stack3_block2_se_out/mul", "op": "Mul", "input": ["StatefulPartitionedCall/se_mobilefacenet/model/stack3_block2_3_bn/FusedBatchNormV3", "StatefulPartitionedCall/se_mobilefacenet/model/activation_7/Sigmoid"], "attr": {"T": {"type": "DT_HALF"}}}, {"name": "StatefulPartitionedCall/se_mobilefacenet/model/add_4/add", "op": "AddV2", "input": ["StatefulPartitionedCall/se_mobilefacenet/model/stack3_block1_se_out/mul", "StatefulPartitionedCall/se_mobilefacenet/model/stack3_block2_se_out/mul"], "attr": {"T": {"type": "DT_HALF"}}}, {"name": "StatefulPartitionedCall/se_mobilefacenet/model/stack3_block3_1_conv/Conv2D", "op": "Conv2D", "input": ["StatefulPartitionedCall/se_mobilefacenet/model/add_4/add", "StatefulPartitionedCall/se_mobilefacenet/model/stack3_block3_1_conv/Conv2D_weights"], "device": "/device:CPU:0", "attr": {"padding": {"s": "U0FNRQ=="}, "data_format": {"s": "TkhXQw=="}, "use_cudnn_on_gpu": {"b": true}, "strides": {"list": {"i": ["1", "1", "1", "1"]}}, "T": {"type": "DT_HALF"}, "explicit_paddings": {"list": {}}, "dilations": {"list": {"i": ["1", "1", "1", "1"]}}}}, {"name": "StatefulPartitionedCall/se_mobilefacenet/model/stack3_block3_1_bn/FusedBatchNormV3", "op": "BiasAdd", "input": ["StatefulPartitionedCall/se_mobilefacenet/model/stack3_block3_1_conv/Conv2D", "StatefulPartitionedCall/se_mobilefacenet/model/stack3_block3_1_conv/Conv2D_bn_offset"], "attr": {"data_format": {"s": "TkhXQw=="}, "T": {"type": "DT_HALF"}}}, {"name": "StatefulPartitionedCall/se_mobilefacenet/model/stack3_block3_1_prelu/Relu", "op": "Prelu", "input": ["StatefulPartitionedCall/se_mobilefacenet/model/stack3_block3_1_bn/FusedBatchNormV3", "StatefulPartitionedCall/se_mobilefacenet/model/stack3_block3_1_prelu/Neg"]}, {"name": "StatefulPartitionedCall/se_mobilefacenet/model/stack3_block3_2_depthwise/depthwise", "op": "FusedDepthwiseConv2dNative", "input": ["StatefulPartitionedCall/se_mobilefacenet/model/stack3_block3_1_prelu/Relu", "StatefulPartitionedCall/se_mobilefacenet/model/stack3_block3_2_depthwise/depthwise_weights", "StatefulPartitionedCall/se_mobilefacenet/model/stack3_block3_2_depthwise/depthwise_bn_offset", "StatefulPartitionedCall/se_mobilefacenet/model/stack3_block3_2_prelu/Neg"], "attr": {"padding": {"s": "U0FNRQ=="}, "data_format": {"s": "TkhXQw=="}, "strides": {"list": {"i": ["1", "1", "1", "1"]}}, "num_args": {"i": "2"}, "fused_ops": {"list": {"s": ["Qmlhc0FkZA==", "UHJlbHU="]}}, "T": {"type": "DT_HALF"}, "explicit_paddings": {"list": {}}, "dilations": {"list": {"i": ["1", "1", "1", "1"]}}}}, {"name": "StatefulPartitionedCall/se_mobilefacenet/model/stack3_block3_3_conv/Conv2D", "op": "Conv2D", "input": ["StatefulPartitionedCall/se_mobilefacenet/model/stack3_block3_2_depthwise/depthwise", "StatefulPartitionedCall/se_mobilefacenet/model/stack3_block3_3_conv/Conv2D_weights"], "device": "/device:CPU:0", "attr": {"padding": {"s": "U0FNRQ=="}, "data_format": {"s": "TkhXQw=="}, "strides": {"list": {"i": ["1", "1", "1", "1"]}}, "use_cudnn_on_gpu": {"b": true}, "T": {"type": "DT_HALF"}, "explicit_paddings": {"list": {}}, "dilations": {"list": {"i": ["1", "1", "1", "1"]}}}}, {"name": "StatefulPartitionedCall/se_mobilefacenet/model/stack3_block3_3_bn/FusedBatchNormV3", "op": "BiasAdd", "input": ["StatefulPartitionedCall/se_mobilefacenet/model/stack3_block3_3_conv/Conv2D", "StatefulPartitionedCall/se_mobilefacenet/model/stack3_block3_3_conv/Conv2D_bn_offset"], "attr": {"data_format": {"s": "TkhXQw=="}, "T": {"type": "DT_HALF"}}}, {"name": "StatefulPartitionedCall/se_mobilefacenet/model/global_average_pooling2d_8/Mean", "op": "Mean", "input": ["StatefulPartitionedCall/se_mobilefacenet/model/stack3_block3_3_bn/FusedBatchNormV3", "StatefulPartitionedCall/se_mobilefacenet/model/global_average_pooling2d_8/Mean/reduction_indices"], "attr": {"T": {"type": "DT_HALF"}, "Tidx": {"type": "DT_INT32"}, "keep_dims": {"b": true}}}, {"name": "StatefulPartitionedCall/se_mobilefacenet/model/stack3_block3_se_1_conv/Conv2D", "op": "Conv2D", "input": ["StatefulPartitionedCall/se_mobilefacenet/model/global_average_pooling2d_8/Mean", "StatefulPartitionedCall/se_mobilefacenet/model/stack3_block3_se_1_conv/Conv2D/Cast"], "device": "/device:CPU:0", "attr": {"padding": {"s": "VkFMSUQ="}, "data_format": {"s": "TkhXQw=="}, "use_cudnn_on_gpu": {"b": true}, "strides": {"list": {"i": ["1", "1", "1", "1"]}}, "T": {"type": "DT_HALF"}, "explicit_paddings": {"list": {}}, "dilations": {"list": {"i": ["1", "1", "1", "1"]}}}}, {"name": "StatefulPartitionedCall/se_mobilefacenet/model/stack3_block3_se_1_conv/BiasAdd", "op": "BiasAdd", "input": ["StatefulPartitionedCall/se_mobilefacenet/model/stack3_block3_se_1_conv/Conv2D", "StatefulPartitionedCall/se_mobilefacenet/model/stack3_block3_se_1_conv/BiasAdd/Cast"], "attr": {"data_format": {"s": "TkhXQw=="}, "T": {"type": "DT_HALF"}}}, {"name": "StatefulPartitionedCall/se_mobilefacenet/model/stack3_block3_se_prelu/Relu", "op": "Prelu", "input": ["StatefulPartitionedCall/se_mobilefacenet/model/stack3_block3_se_1_conv/BiasAdd", "StatefulPartitionedCall/se_mobilefacenet/model/stack3_block3_se_prelu/Neg"]}, {"name": "StatefulPartitionedCall/se_mobilefacenet/model/stack3_block3_se_2_conv/Conv2D", "op": "Conv2D", "input": ["StatefulPartitionedCall/se_mobilefacenet/model/stack3_block3_se_prelu/Relu", "StatefulPartitionedCall/se_mobilefacenet/model/stack3_block3_se_2_conv/Conv2D/Cast"], "device": "/device:CPU:0", "attr": {"padding": {"s": "VkFMSUQ="}, "data_format": {"s": "TkhXQw=="}, "use_cudnn_on_gpu": {"b": true}, "strides": {"list": {"i": ["1", "1", "1", "1"]}}, "T": {"type": "DT_HALF"}, "explicit_paddings": {"list": {}}, "dilations": {"list": {"i": ["1", "1", "1", "1"]}}}}, {"name": "StatefulPartitionedCall/se_mobilefacenet/model/stack3_block3_se_2_conv/BiasAdd", "op": "BiasAdd", "input": ["StatefulPartitionedCall/se_mobilefacenet/model/stack3_block3_se_2_conv/Conv2D", "StatefulPartitionedCall/se_mobilefacenet/model/stack3_block3_se_2_conv/BiasAdd/Cast"], "attr": {"data_format": {"s": "TkhXQw=="}, "T": {"type": "DT_HALF"}}}, {"name": "StatefulPartitionedCall/se_mobilefacenet/model/activation_8/Sigmoid", "op": "Sigmoid", "input": ["StatefulPartitionedCall/se_mobilefacenet/model/stack3_block3_se_2_conv/BiasAdd"], "attr": {"T": {"type": "DT_HALF"}}}, {"name": "StatefulPartitionedCall/se_mobilefacenet/model/stack3_block3_se_out/mul", "op": "Mul", "input": ["StatefulPartitionedCall/se_mobilefacenet/model/stack3_block3_3_bn/FusedBatchNormV3", "StatefulPartitionedCall/se_mobilefacenet/model/activation_8/Sigmoid"], "attr": {"T": {"type": "DT_HALF"}}}, {"name": "StatefulPartitionedCall/se_mobilefacenet/model/add_5/add", "op": "AddV2", "input": ["StatefulPartitionedCall/se_mobilefacenet/model/add_4/add", "StatefulPartitionedCall/se_mobilefacenet/model/stack3_block3_se_out/mul"], "attr": {"T": {"type": "DT_HALF"}}}, {"name": "StatefulPartitionedCall/se_mobilefacenet/model/stack3_block4_1_conv/Conv2D", "op": "Conv2D", "input": ["StatefulPartitionedCall/se_mobilefacenet/model/add_5/add", "StatefulPartitionedCall/se_mobilefacenet/model/stack3_block4_1_conv/Conv2D_weights"], "device": "/device:CPU:0", "attr": {"padding": {"s": "U0FNRQ=="}, "data_format": {"s": "TkhXQw=="}, "strides": {"list": {"i": ["1", "1", "1", "1"]}}, "use_cudnn_on_gpu": {"b": true}, "T": {"type": "DT_HALF"}, "explicit_paddings": {"list": {}}, "dilations": {"list": {"i": ["1", "1", "1", "1"]}}}}, {"name": "StatefulPartitionedCall/se_mobilefacenet/model/stack3_block4_1_bn/FusedBatchNormV3", "op": "BiasAdd", "input": ["StatefulPartitionedCall/se_mobilefacenet/model/stack3_block4_1_conv/Conv2D", "StatefulPartitionedCall/se_mobilefacenet/model/stack3_block4_1_conv/Conv2D_bn_offset"], "attr": {"data_format": {"s": "TkhXQw=="}, "T": {"type": "DT_HALF"}}}, {"name": "StatefulPartitionedCall/se_mobilefacenet/model/stack3_block4_1_prelu/Relu", "op": "Prelu", "input": ["StatefulPartitionedCall/se_mobilefacenet/model/stack3_block4_1_bn/FusedBatchNormV3", "StatefulPartitionedCall/se_mobilefacenet/model/stack3_block4_1_prelu/Neg"]}, {"name": "StatefulPartitionedCall/se_mobilefacenet/model/stack3_block4_2_depthwise/depthwise", "op": "FusedDepthwiseConv2dNative", "input": ["StatefulPartitionedCall/se_mobilefacenet/model/stack3_block4_1_prelu/Relu", "StatefulPartitionedCall/se_mobilefacenet/model/stack3_block4_2_depthwise/depthwise_weights", "StatefulPartitionedCall/se_mobilefacenet/model/stack3_block4_2_depthwise/depthwise_bn_offset", "StatefulPartitionedCall/se_mobilefacenet/model/stack3_block4_2_prelu/Neg"], "attr": {"padding": {"s": "U0FNRQ=="}, "data_format": {"s": "TkhXQw=="}, "strides": {"list": {"i": ["1", "1", "1", "1"]}}, "num_args": {"i": "2"}, "fused_ops": {"list": {"s": ["Qmlhc0FkZA==", "UHJlbHU="]}}, "T": {"type": "DT_HALF"}, "explicit_paddings": {"list": {}}, "dilations": {"list": {"i": ["1", "1", "1", "1"]}}}}, {"name": "StatefulPartitionedCall/se_mobilefacenet/model/stack3_block4_3_conv/Conv2D", "op": "Conv2D", "input": ["StatefulPartitionedCall/se_mobilefacenet/model/stack3_block4_2_depthwise/depthwise", "StatefulPartitionedCall/se_mobilefacenet/model/stack3_block4_3_conv/Conv2D_weights"], "device": "/device:CPU:0", "attr": {"padding": {"s": "U0FNRQ=="}, "data_format": {"s": "TkhXQw=="}, "strides": {"list": {"i": ["1", "1", "1", "1"]}}, "use_cudnn_on_gpu": {"b": true}, "T": {"type": "DT_HALF"}, "explicit_paddings": {"list": {}}, "dilations": {"list": {"i": ["1", "1", "1", "1"]}}}}, {"name": "StatefulPartitionedCall/se_mobilefacenet/model/stack3_block4_3_bn/FusedBatchNormV3", "op": "BiasAdd", "input": ["StatefulPartitionedCall/se_mobilefacenet/model/stack3_block4_3_conv/Conv2D", "StatefulPartitionedCall/se_mobilefacenet/model/stack3_block4_3_conv/Conv2D_bn_offset"], "attr": {"data_format": {"s": "TkhXQw=="}, "T": {"type": "DT_HALF"}}}, {"name": "StatefulPartitionedCall/se_mobilefacenet/model/global_average_pooling2d_9/Mean", "op": "Mean", "input": ["StatefulPartitionedCall/se_mobilefacenet/model/stack3_block4_3_bn/FusedBatchNormV3", "StatefulPartitionedCall/se_mobilefacenet/model/global_average_pooling2d_9/Mean/reduction_indices"], "attr": {"Tidx": {"type": "DT_INT32"}, "T": {"type": "DT_HALF"}, "keep_dims": {"b": true}}}, {"name": "StatefulPartitionedCall/se_mobilefacenet/model/stack3_block4_se_1_conv/Conv2D", "op": "Conv2D", "input": ["StatefulPartitionedCall/se_mobilefacenet/model/global_average_pooling2d_9/Mean", "StatefulPartitionedCall/se_mobilefacenet/model/stack3_block4_se_1_conv/Conv2D/Cast"], "device": "/device:CPU:0", "attr": {"padding": {"s": "VkFMSUQ="}, "data_format": {"s": "TkhXQw=="}, "use_cudnn_on_gpu": {"b": true}, "strides": {"list": {"i": ["1", "1", "1", "1"]}}, "T": {"type": "DT_HALF"}, "explicit_paddings": {"list": {}}, "dilations": {"list": {"i": ["1", "1", "1", "1"]}}}}, {"name": "StatefulPartitionedCall/se_mobilefacenet/model/stack3_block4_se_1_conv/BiasAdd", "op": "BiasAdd", "input": ["StatefulPartitionedCall/se_mobilefacenet/model/stack3_block4_se_1_conv/Conv2D", "StatefulPartitionedCall/se_mobilefacenet/model/stack3_block4_se_1_conv/BiasAdd/Cast"], "attr": {"data_format": {"s": "TkhXQw=="}, "T": {"type": "DT_HALF"}}}, {"name": "StatefulPartitionedCall/se_mobilefacenet/model/stack3_block4_se_prelu/Relu", "op": "Prelu", "input": ["StatefulPartitionedCall/se_mobilefacenet/model/stack3_block4_se_1_conv/BiasAdd", "StatefulPartitionedCall/se_mobilefacenet/model/stack3_block4_se_prelu/Neg"]}, {"name": "StatefulPartitionedCall/se_mobilefacenet/model/stack3_block4_se_2_conv/Conv2D", "op": "Conv2D", "input": ["StatefulPartitionedCall/se_mobilefacenet/model/stack3_block4_se_prelu/Relu", "StatefulPartitionedCall/se_mobilefacenet/model/stack3_block4_se_2_conv/Conv2D/Cast"], "device": "/device:CPU:0", "attr": {"padding": {"s": "VkFMSUQ="}, "data_format": {"s": "TkhXQw=="}, "strides": {"list": {"i": ["1", "1", "1", "1"]}}, "use_cudnn_on_gpu": {"b": true}, "T": {"type": "DT_HALF"}, "explicit_paddings": {"list": {}}, "dilations": {"list": {"i": ["1", "1", "1", "1"]}}}}, {"name": "StatefulPartitionedCall/se_mobilefacenet/model/stack3_block4_se_2_conv/BiasAdd", "op": "BiasAdd", "input": ["StatefulPartitionedCall/se_mobilefacenet/model/stack3_block4_se_2_conv/Conv2D", "StatefulPartitionedCall/se_mobilefacenet/model/stack3_block4_se_2_conv/BiasAdd/Cast"], "attr": {"data_format": {"s": "TkhXQw=="}, "T": {"type": "DT_HALF"}}}, {"name": "StatefulPartitionedCall/se_mobilefacenet/model/activation_9/Sigmoid", "op": "Sigmoid", "input": ["StatefulPartitionedCall/se_mobilefacenet/model/stack3_block4_se_2_conv/BiasAdd"], "attr": {"T": {"type": "DT_HALF"}}}, {"name": "StatefulPartitionedCall/se_mobilefacenet/model/stack3_block4_se_out/mul", "op": "Mul", "input": ["StatefulPartitionedCall/se_mobilefacenet/model/stack3_block4_3_bn/FusedBatchNormV3", "StatefulPartitionedCall/se_mobilefacenet/model/activation_9/Sigmoid"], "attr": {"T": {"type": "DT_HALF"}}}, {"name": "StatefulPartitionedCall/se_mobilefacenet/model/add_6/add", "op": "AddV2", "input": ["StatefulPartitionedCall/se_mobilefacenet/model/add_5/add", "StatefulPartitionedCall/se_mobilefacenet/model/stack3_block4_se_out/mul"], "attr": {"T": {"type": "DT_HALF"}}}, {"name": "StatefulPartitionedCall/se_mobilefacenet/model/stack3_block5_1_conv/Conv2D", "op": "Conv2D", "input": ["StatefulPartitionedCall/se_mobilefacenet/model/add_6/add", "StatefulPartitionedCall/se_mobilefacenet/model/stack3_block5_1_conv/Conv2D_weights"], "device": "/device:CPU:0", "attr": {"padding": {"s": "U0FNRQ=="}, "data_format": {"s": "TkhXQw=="}, "strides": {"list": {"i": ["1", "1", "1", "1"]}}, "use_cudnn_on_gpu": {"b": true}, "T": {"type": "DT_HALF"}, "explicit_paddings": {"list": {}}, "dilations": {"list": {"i": ["1", "1", "1", "1"]}}}}, {"name": "StatefulPartitionedCall/se_mobilefacenet/model/stack3_block5_1_bn/FusedBatchNormV3", "op": "BiasAdd", "input": ["StatefulPartitionedCall/se_mobilefacenet/model/stack3_block5_1_conv/Conv2D", "StatefulPartitionedCall/se_mobilefacenet/model/stack3_block5_1_conv/Conv2D_bn_offset"], "attr": {"data_format": {"s": "TkhXQw=="}, "T": {"type": "DT_HALF"}}}, {"name": "StatefulPartitionedCall/se_mobilefacenet/model/stack3_block5_1_prelu/Relu", "op": "Prelu", "input": ["StatefulPartitionedCall/se_mobilefacenet/model/stack3_block5_1_bn/FusedBatchNormV3", "StatefulPartitionedCall/se_mobilefacenet/model/stack3_block5_1_prelu/Neg"]}, {"name": "StatefulPartitionedCall/se_mobilefacenet/model/stack3_block5_2_depthwise/depthwise", "op": "FusedDepthwiseConv2dNative", "input": ["StatefulPartitionedCall/se_mobilefacenet/model/stack3_block5_1_prelu/Relu", "StatefulPartitionedCall/se_mobilefacenet/model/stack3_block5_2_depthwise/depthwise_weights", "StatefulPartitionedCall/se_mobilefacenet/model/stack3_block5_2_depthwise/depthwise_bn_offset", "StatefulPartitionedCall/se_mobilefacenet/model/stack3_block5_2_prelu/Neg"], "attr": {"padding": {"s": "U0FNRQ=="}, "data_format": {"s": "TkhXQw=="}, "strides": {"list": {"i": ["1", "1", "1", "1"]}}, "num_args": {"i": "2"}, "fused_ops": {"list": {"s": ["Qmlhc0FkZA==", "UHJlbHU="]}}, "T": {"type": "DT_HALF"}, "explicit_paddings": {"list": {}}, "dilations": {"list": {"i": ["1", "1", "1", "1"]}}}}, {"name": "StatefulPartitionedCall/se_mobilefacenet/model/stack3_block5_3_conv/Conv2D", "op": "Conv2D", "input": ["StatefulPartitionedCall/se_mobilefacenet/model/stack3_block5_2_depthwise/depthwise", "StatefulPartitionedCall/se_mobilefacenet/model/stack3_block5_3_conv/Conv2D_weights"], "device": "/device:CPU:0", "attr": {"padding": {"s": "U0FNRQ=="}, "data_format": {"s": "TkhXQw=="}, "strides": {"list": {"i": ["1", "1", "1", "1"]}}, "use_cudnn_on_gpu": {"b": true}, "T": {"type": "DT_HALF"}, "explicit_paddings": {"list": {}}, "dilations": {"list": {"i": ["1", "1", "1", "1"]}}}}, {"name": "StatefulPartitionedCall/se_mobilefacenet/model/stack3_block5_3_bn/FusedBatchNormV3", "op": "BiasAdd", "input": ["StatefulPartitionedCall/se_mobilefacenet/model/stack3_block5_3_conv/Conv2D", "StatefulPartitionedCall/se_mobilefacenet/model/stack3_block5_3_conv/Conv2D_bn_offset"], "attr": {"data_format": {"s": "TkhXQw=="}, "T": {"type": "DT_HALF"}}}, {"name": "StatefulPartitionedCall/se_mobilefacenet/model/global_average_pooling2d_10/Mean", "op": "Mean", "input": ["StatefulPartitionedCall/se_mobilefacenet/model/stack3_block5_3_bn/FusedBatchNormV3", "StatefulPartitionedCall/se_mobilefacenet/model/global_average_pooling2d_10/Mean/reduction_indices"], "attr": {"T": {"type": "DT_HALF"}, "Tidx": {"type": "DT_INT32"}, "keep_dims": {"b": true}}}, {"name": "StatefulPartitionedCall/se_mobilefacenet/model/stack3_block5_se_1_conv/Conv2D", "op": "Conv2D", "input": ["StatefulPartitionedCall/se_mobilefacenet/model/global_average_pooling2d_10/Mean", "StatefulPartitionedCall/se_mobilefacenet/model/stack3_block5_se_1_conv/Conv2D/Cast"], "device": "/device:CPU:0", "attr": {"padding": {"s": "VkFMSUQ="}, "data_format": {"s": "TkhXQw=="}, "strides": {"list": {"i": ["1", "1", "1", "1"]}}, "use_cudnn_on_gpu": {"b": true}, "T": {"type": "DT_HALF"}, "explicit_paddings": {"list": {}}, "dilations": {"list": {"i": ["1", "1", "1", "1"]}}}}, {"name": "StatefulPartitionedCall/se_mobilefacenet/model/stack3_block5_se_1_conv/BiasAdd", "op": "BiasAdd", "input": ["StatefulPartitionedCall/se_mobilefacenet/model/stack3_block5_se_1_conv/Conv2D", "StatefulPartitionedCall/se_mobilefacenet/model/stack3_block5_se_1_conv/BiasAdd/Cast"], "attr": {"data_format": {"s": "TkhXQw=="}, "T": {"type": "DT_HALF"}}}, {"name": "StatefulPartitionedCall/se_mobilefacenet/model/stack3_block5_se_prelu/Relu", "op": "Prelu", "input": ["StatefulPartitionedCall/se_mobilefacenet/model/stack3_block5_se_1_conv/BiasAdd", "StatefulPartitionedCall/se_mobilefacenet/model/stack3_block5_se_prelu/Neg"]}, {"name": "StatefulPartitionedCall/se_mobilefacenet/model/stack3_block5_se_2_conv/Conv2D", "op": "Conv2D", "input": ["StatefulPartitionedCall/se_mobilefacenet/model/stack3_block5_se_prelu/Relu", "StatefulPartitionedCall/se_mobilefacenet/model/stack3_block5_se_2_conv/Conv2D/Cast"], "device": "/device:CPU:0", "attr": {"padding": {"s": "VkFMSUQ="}, "data_format": {"s": "TkhXQw=="}, "use_cudnn_on_gpu": {"b": true}, "strides": {"list": {"i": ["1", "1", "1", "1"]}}, "T": {"type": "DT_HALF"}, "explicit_paddings": {"list": {}}, "dilations": {"list": {"i": ["1", "1", "1", "1"]}}}}, {"name": "StatefulPartitionedCall/se_mobilefacenet/model/stack3_block5_se_2_conv/BiasAdd", "op": "BiasAdd", "input": ["StatefulPartitionedCall/se_mobilefacenet/model/stack3_block5_se_2_conv/Conv2D", "StatefulPartitionedCall/se_mobilefacenet/model/stack3_block5_se_2_conv/BiasAdd/Cast"], "attr": {"data_format": {"s": "TkhXQw=="}, "T": {"type": "DT_HALF"}}}, {"name": "StatefulPartitionedCall/se_mobilefacenet/model/activation_10/Sigmoid", "op": "Sigmoid", "input": ["StatefulPartitionedCall/se_mobilefacenet/model/stack3_block5_se_2_conv/BiasAdd"], "attr": {"T": {"type": "DT_HALF"}}}, {"name": "StatefulPartitionedCall/se_mobilefacenet/model/stack3_block5_se_out/mul", "op": "Mul", "input": ["StatefulPartitionedCall/se_mobilefacenet/model/stack3_block5_3_bn/FusedBatchNormV3", "StatefulPartitionedCall/se_mobilefacenet/model/activation_10/Sigmoid"], "attr": {"T": {"type": "DT_HALF"}}}, {"name": "StatefulPartitionedCall/se_mobilefacenet/model/add_7/add", "op": "AddV2", "input": ["StatefulPartitionedCall/se_mobilefacenet/model/add_6/add", "StatefulPartitionedCall/se_mobilefacenet/model/stack3_block5_se_out/mul"], "attr": {"T": {"type": "DT_HALF"}}}, {"name": "StatefulPartitionedCall/se_mobilefacenet/model/stack3_block6_1_conv/Conv2D", "op": "Conv2D", "input": ["StatefulPartitionedCall/se_mobilefacenet/model/add_7/add", "StatefulPartitionedCall/se_mobilefacenet/model/stack3_block6_1_conv/Conv2D_weights"], "device": "/device:CPU:0", "attr": {"padding": {"s": "U0FNRQ=="}, "data_format": {"s": "TkhXQw=="}, "strides": {"list": {"i": ["1", "1", "1", "1"]}}, "use_cudnn_on_gpu": {"b": true}, "T": {"type": "DT_HALF"}, "explicit_paddings": {"list": {}}, "dilations": {"list": {"i": ["1", "1", "1", "1"]}}}}, {"name": "StatefulPartitionedCall/se_mobilefacenet/model/stack3_block6_1_bn/FusedBatchNormV3", "op": "BiasAdd", "input": ["StatefulPartitionedCall/se_mobilefacenet/model/stack3_block6_1_conv/Conv2D", "StatefulPartitionedCall/se_mobilefacenet/model/stack3_block6_1_conv/Conv2D_bn_offset"], "attr": {"data_format": {"s": "TkhXQw=="}, "T": {"type": "DT_HALF"}}}, {"name": "StatefulPartitionedCall/se_mobilefacenet/model/stack3_block6_1_prelu/Relu", "op": "Prelu", "input": ["StatefulPartitionedCall/se_mobilefacenet/model/stack3_block6_1_bn/FusedBatchNormV3", "StatefulPartitionedCall/se_mobilefacenet/model/stack3_block6_1_prelu/Neg"]}, {"name": "StatefulPartitionedCall/se_mobilefacenet/model/stack3_block6_2_depthwise/depthwise", "op": "FusedDepthwiseConv2dNative", "input": ["StatefulPartitionedCall/se_mobilefacenet/model/stack3_block6_1_prelu/Relu", "StatefulPartitionedCall/se_mobilefacenet/model/stack3_block6_2_depthwise/depthwise_weights", "StatefulPartitionedCall/se_mobilefacenet/model/stack3_block6_2_depthwise/depthwise_bn_offset", "StatefulPartitionedCall/se_mobilefacenet/model/stack3_block6_2_prelu/Neg"], "attr": {"padding": {"s": "U0FNRQ=="}, "data_format": {"s": "TkhXQw=="}, "strides": {"list": {"i": ["1", "1", "1", "1"]}}, "num_args": {"i": "2"}, "fused_ops": {"list": {"s": ["Qmlhc0FkZA==", "UHJlbHU="]}}, "T": {"type": "DT_HALF"}, "explicit_paddings": {"list": {}}, "dilations": {"list": {"i": ["1", "1", "1", "1"]}}}}, {"name": "StatefulPartitionedCall/se_mobilefacenet/model/stack3_block6_3_conv/Conv2D", "op": "Conv2D", "input": ["StatefulPartitionedCall/se_mobilefacenet/model/stack3_block6_2_depthwise/depthwise", "StatefulPartitionedCall/se_mobilefacenet/model/stack3_block6_3_conv/Conv2D_weights"], "device": "/device:CPU:0", "attr": {"padding": {"s": "U0FNRQ=="}, "data_format": {"s": "TkhXQw=="}, "use_cudnn_on_gpu": {"b": true}, "strides": {"list": {"i": ["1", "1", "1", "1"]}}, "T": {"type": "DT_HALF"}, "explicit_paddings": {"list": {}}, "dilations": {"list": {"i": ["1", "1", "1", "1"]}}}}, {"name": "StatefulPartitionedCall/se_mobilefacenet/model/stack3_block6_3_bn/FusedBatchNormV3", "op": "BiasAdd", "input": ["StatefulPartitionedCall/se_mobilefacenet/model/stack3_block6_3_conv/Conv2D", "StatefulPartitionedCall/se_mobilefacenet/model/stack3_block6_3_conv/Conv2D_bn_offset"], "attr": {"data_format": {"s": "TkhXQw=="}, "T": {"type": "DT_HALF"}}}, {"name": "StatefulPartitionedCall/se_mobilefacenet/model/global_average_pooling2d_11/Mean", "op": "Mean", "input": ["StatefulPartitionedCall/se_mobilefacenet/model/stack3_block6_3_bn/FusedBatchNormV3", "StatefulPartitionedCall/se_mobilefacenet/model/global_average_pooling2d_11/Mean/reduction_indices"], "attr": {"T": {"type": "DT_HALF"}, "Tidx": {"type": "DT_INT32"}, "keep_dims": {"b": true}}}, {"name": "StatefulPartitionedCall/se_mobilefacenet/model/stack3_block6_se_1_conv/Conv2D", "op": "Conv2D", "input": ["StatefulPartitionedCall/se_mobilefacenet/model/global_average_pooling2d_11/Mean", "StatefulPartitionedCall/se_mobilefacenet/model/stack3_block6_se_1_conv/Conv2D/Cast"], "device": "/device:CPU:0", "attr": {"padding": {"s": "VkFMSUQ="}, "data_format": {"s": "TkhXQw=="}, "use_cudnn_on_gpu": {"b": true}, "strides": {"list": {"i": ["1", "1", "1", "1"]}}, "T": {"type": "DT_HALF"}, "explicit_paddings": {"list": {}}, "dilations": {"list": {"i": ["1", "1", "1", "1"]}}}}, {"name": "StatefulPartitionedCall/se_mobilefacenet/model/stack3_block6_se_1_conv/BiasAdd", "op": "BiasAdd", "input": ["StatefulPartitionedCall/se_mobilefacenet/model/stack3_block6_se_1_conv/Conv2D", "StatefulPartitionedCall/se_mobilefacenet/model/stack3_block6_se_1_conv/BiasAdd/Cast"], "attr": {"data_format": {"s": "TkhXQw=="}, "T": {"type": "DT_HALF"}}}, {"name": "StatefulPartitionedCall/se_mobilefacenet/model/stack3_block6_se_prelu/Relu", "op": "Prelu", "input": ["StatefulPartitionedCall/se_mobilefacenet/model/stack3_block6_se_1_conv/BiasAdd", "StatefulPartitionedCall/se_mobilefacenet/model/stack3_block6_se_prelu/Neg"]}, {"name": "StatefulPartitionedCall/se_mobilefacenet/model/stack3_block6_se_2_conv/Conv2D", "op": "Conv2D", "input": ["StatefulPartitionedCall/se_mobilefacenet/model/stack3_block6_se_prelu/Relu", "StatefulPartitionedCall/se_mobilefacenet/model/stack3_block6_se_2_conv/Conv2D/Cast"], "device": "/device:CPU:0", "attr": {"padding": {"s": "VkFMSUQ="}, "data_format": {"s": "TkhXQw=="}, "use_cudnn_on_gpu": {"b": true}, "strides": {"list": {"i": ["1", "1", "1", "1"]}}, "T": {"type": "DT_HALF"}, "explicit_paddings": {"list": {}}, "dilations": {"list": {"i": ["1", "1", "1", "1"]}}}}, {"name": "StatefulPartitionedCall/se_mobilefacenet/model/stack3_block6_se_2_conv/BiasAdd", "op": "BiasAdd", "input": ["StatefulPartitionedCall/se_mobilefacenet/model/stack3_block6_se_2_conv/Conv2D", "StatefulPartitionedCall/se_mobilefacenet/model/stack3_block6_se_2_conv/BiasAdd/Cast"], "attr": {"data_format": {"s": "TkhXQw=="}, "T": {"type": "DT_HALF"}}}, {"name": "StatefulPartitionedCall/se_mobilefacenet/model/activation_11/Sigmoid", "op": "Sigmoid", "input": ["StatefulPartitionedCall/se_mobilefacenet/model/stack3_block6_se_2_conv/BiasAdd"], "attr": {"T": {"type": "DT_HALF"}}}, {"name": "StatefulPartitionedCall/se_mobilefacenet/model/stack3_block6_se_out/mul", "op": "Mul", "input": ["StatefulPartitionedCall/se_mobilefacenet/model/stack3_block6_3_bn/FusedBatchNormV3", "StatefulPartitionedCall/se_mobilefacenet/model/activation_11/Sigmoid"], "attr": {"T": {"type": "DT_HALF"}}}, {"name": "StatefulPartitionedCall/se_mobilefacenet/model/add_8/add", "op": "AddV2", "input": ["StatefulPartitionedCall/se_mobilefacenet/model/add_7/add", "StatefulPartitionedCall/se_mobilefacenet/model/stack3_block6_se_out/mul"], "attr": {"T": {"type": "DT_HALF"}}}, {"name": "StatefulPartitionedCall/se_mobilefacenet/model/stack4_block1_1_conv/Conv2D", "op": "Conv2D", "input": ["StatefulPartitionedCall/se_mobilefacenet/model/add_8/add", "StatefulPartitionedCall/se_mobilefacenet/model/stack4_block1_1_conv/Conv2D_weights"], "device": "/device:CPU:0", "attr": {"padding": {"s": "U0FNRQ=="}, "data_format": {"s": "TkhXQw=="}, "use_cudnn_on_gpu": {"b": true}, "strides": {"list": {"i": ["1", "1", "1", "1"]}}, "T": {"type": "DT_HALF"}, "explicit_paddings": {"list": {}}, "dilations": {"list": {"i": ["1", "1", "1", "1"]}}}}, {"name": "StatefulPartitionedCall/se_mobilefacenet/model/stack4_block1_1_bn/FusedBatchNormV3", "op": "BiasAdd", "input": ["StatefulPartitionedCall/se_mobilefacenet/model/stack4_block1_1_conv/Conv2D", "StatefulPartitionedCall/se_mobilefacenet/model/stack4_block1_1_conv/Conv2D_bn_offset"], "attr": {"data_format": {"s": "TkhXQw=="}, "T": {"type": "DT_HALF"}}}, {"name": "StatefulPartitionedCall/se_mobilefacenet/model/stack4_block1_1_prelu/Relu", "op": "Prelu", "input": ["StatefulPartitionedCall/se_mobilefacenet/model/stack4_block1_1_bn/FusedBatchNormV3", "StatefulPartitionedCall/se_mobilefacenet/model/stack4_block1_1_prelu/Neg"]}, {"name": "StatefulPartitionedCall/se_mobilefacenet/model/stack4_block1_2_depthwise/depthwise", "op": "FusedDepthwiseConv2dNative", "input": ["StatefulPartitionedCall/se_mobilefacenet/model/stack4_block1_1_prelu/Relu", "StatefulPartitionedCall/se_mobilefacenet/model/stack4_block1_2_depthwise/depthwise_weights", "StatefulPartitionedCall/se_mobilefacenet/model/stack4_block1_2_depthwise/depthwise_bn_offset", "StatefulPartitionedCall/se_mobilefacenet/model/stack4_block1_2_prelu/Neg"], "attr": {"padding": {"s": "U0FNRQ=="}, "data_format": {"s": "TkhXQw=="}, "strides": {"list": {"i": ["1", "2", "2", "1"]}}, "num_args": {"i": "2"}, "fused_ops": {"list": {"s": ["Qmlhc0FkZA==", "UHJlbHU="]}}, "T": {"type": "DT_HALF"}, "explicit_paddings": {"list": {}}, "dilations": {"list": {"i": ["1", "1", "1", "1"]}}}}, {"name": "StatefulPartitionedCall/se_mobilefacenet/model/stack4_block1_3_conv/Conv2D", "op": "Conv2D", "input": ["StatefulPartitionedCall/se_mobilefacenet/model/stack4_block1_2_depthwise/depthwise", "StatefulPartitionedCall/se_mobilefacenet/model/stack4_block1_3_conv/Conv2D_weights"], "device": "/device:CPU:0", "attr": {"padding": {"s": "U0FNRQ=="}, "data_format": {"s": "TkhXQw=="}, "use_cudnn_on_gpu": {"b": true}, "strides": {"list": {"i": ["1", "1", "1", "1"]}}, "T": {"type": "DT_HALF"}, "explicit_paddings": {"list": {}}, "dilations": {"list": {"i": ["1", "1", "1", "1"]}}}}, {"name": "StatefulPartitionedCall/se_mobilefacenet/model/stack4_block1_3_bn/FusedBatchNormV3", "op": "BiasAdd", "input": ["StatefulPartitionedCall/se_mobilefacenet/model/stack4_block1_3_conv/Conv2D", "StatefulPartitionedCall/se_mobilefacenet/model/stack4_block1_3_conv/Conv2D_bn_offset"], "attr": {"data_format": {"s": "TkhXQw=="}, "T": {"type": "DT_HALF"}}}, {"name": "StatefulPartitionedCall/se_mobilefacenet/model/global_average_pooling2d_12/Mean", "op": "Mean", "input": ["StatefulPartitionedCall/se_mobilefacenet/model/stack4_block1_3_bn/FusedBatchNormV3", "StatefulPartitionedCall/se_mobilefacenet/model/global_average_pooling2d_12/Mean/reduction_indices"], "attr": {"T": {"type": "DT_HALF"}, "Tidx": {"type": "DT_INT32"}, "keep_dims": {"b": true}}}, {"name": "StatefulPartitionedCall/se_mobilefacenet/model/stack4_block1_se_1_conv/Conv2D", "op": "Conv2D", "input": ["StatefulPartitionedCall/se_mobilefacenet/model/global_average_pooling2d_12/Mean", "StatefulPartitionedCall/se_mobilefacenet/model/stack4_block1_se_1_conv/Conv2D/Cast"], "device": "/device:CPU:0", "attr": {"padding": {"s": "VkFMSUQ="}, "data_format": {"s": "TkhXQw=="}, "use_cudnn_on_gpu": {"b": true}, "strides": {"list": {"i": ["1", "1", "1", "1"]}}, "T": {"type": "DT_HALF"}, "explicit_paddings": {"list": {}}, "dilations": {"list": {"i": ["1", "1", "1", "1"]}}}}, {"name": "StatefulPartitionedCall/se_mobilefacenet/model/stack4_block1_se_1_conv/BiasAdd", "op": "BiasAdd", "input": ["StatefulPartitionedCall/se_mobilefacenet/model/stack4_block1_se_1_conv/Conv2D", "StatefulPartitionedCall/se_mobilefacenet/model/stack4_block1_se_1_conv/BiasAdd/Cast"], "attr": {"data_format": {"s": "TkhXQw=="}, "T": {"type": "DT_HALF"}}}, {"name": "StatefulPartitionedCall/se_mobilefacenet/model/stack4_block1_se_prelu/Relu", "op": "Prelu", "input": ["StatefulPartitionedCall/se_mobilefacenet/model/stack4_block1_se_1_conv/BiasAdd", "StatefulPartitionedCall/se_mobilefacenet/model/stack4_block1_se_prelu/Neg"]}, {"name": "StatefulPartitionedCall/se_mobilefacenet/model/stack4_block1_se_2_conv/Conv2D", "op": "Conv2D", "input": ["StatefulPartitionedCall/se_mobilefacenet/model/stack4_block1_se_prelu/Relu", "StatefulPartitionedCall/se_mobilefacenet/model/stack4_block1_se_2_conv/Conv2D/Cast"], "device": "/device:CPU:0", "attr": {"padding": {"s": "VkFMSUQ="}, "data_format": {"s": "TkhXQw=="}, "use_cudnn_on_gpu": {"b": true}, "strides": {"list": {"i": ["1", "1", "1", "1"]}}, "T": {"type": "DT_HALF"}, "explicit_paddings": {"list": {}}, "dilations": {"list": {"i": ["1", "1", "1", "1"]}}}}, {"name": "StatefulPartitionedCall/se_mobilefacenet/model/stack4_block1_se_2_conv/BiasAdd", "op": "BiasAdd", "input": ["StatefulPartitionedCall/se_mobilefacenet/model/stack4_block1_se_2_conv/Conv2D", "StatefulPartitionedCall/se_mobilefacenet/model/stack4_block1_se_2_conv/BiasAdd/Cast"], "attr": {"data_format": {"s": "TkhXQw=="}, "T": {"type": "DT_HALF"}}}, {"name": "StatefulPartitionedCall/se_mobilefacenet/model/activation_12/Sigmoid", "op": "Sigmoid", "input": ["StatefulPartitionedCall/se_mobilefacenet/model/stack4_block1_se_2_conv/BiasAdd"], "attr": {"T": {"type": "DT_HALF"}}}, {"name": "StatefulPartitionedCall/se_mobilefacenet/model/stack4_block1_se_out/mul", "op": "Mul", "input": ["StatefulPartitionedCall/se_mobilefacenet/model/stack4_block1_3_bn/FusedBatchNormV3", "StatefulPartitionedCall/se_mobilefacenet/model/activation_12/Sigmoid"], "attr": {"T": {"type": "DT_HALF"}}}, {"name": "StatefulPartitionedCall/se_mobilefacenet/model/stack5_block1_1_conv/Conv2D", "op": "Conv2D", "input": ["StatefulPartitionedCall/se_mobilefacenet/model/stack4_block1_se_out/mul", "StatefulPartitionedCall/se_mobilefacenet/model/stack5_block1_1_conv/Conv2D_weights"], "device": "/device:CPU:0", "attr": {"padding": {"s": "U0FNRQ=="}, "data_format": {"s": "TkhXQw=="}, "use_cudnn_on_gpu": {"b": true}, "strides": {"list": {"i": ["1", "1", "1", "1"]}}, "T": {"type": "DT_HALF"}, "explicit_paddings": {"list": {}}, "dilations": {"list": {"i": ["1", "1", "1", "1"]}}}}, {"name": "StatefulPartitionedCall/se_mobilefacenet/model/stack5_block1_1_bn/FusedBatchNormV3", "op": "BiasAdd", "input": ["StatefulPartitionedCall/se_mobilefacenet/model/stack5_block1_1_conv/Conv2D", "StatefulPartitionedCall/se_mobilefacenet/model/stack5_block1_1_conv/Conv2D_bn_offset"], "attr": {"data_format": {"s": "TkhXQw=="}, "T": {"type": "DT_HALF"}}}, {"name": "StatefulPartitionedCall/se_mobilefacenet/model/stack5_block1_1_prelu/Relu", "op": "Prelu", "input": ["StatefulPartitionedCall/se_mobilefacenet/model/stack5_block1_1_bn/FusedBatchNormV3", "StatefulPartitionedCall/se_mobilefacenet/model/stack5_block1_1_prelu/Neg"]}, {"name": "StatefulPartitionedCall/se_mobilefacenet/model/stack5_block1_2_depthwise/depthwise", "op": "FusedDepthwiseConv2dNative", "input": ["StatefulPartitionedCall/se_mobilefacenet/model/stack5_block1_1_prelu/Relu", "StatefulPartitionedCall/se_mobilefacenet/model/stack5_block1_2_depthwise/depthwise_weights", "StatefulPartitionedCall/se_mobilefacenet/model/stack5_block1_2_depthwise/depthwise_bn_offset", "StatefulPartitionedCall/se_mobilefacenet/model/stack5_block1_2_prelu/Neg"], "attr": {"padding": {"s": "U0FNRQ=="}, "data_format": {"s": "TkhXQw=="}, "strides": {"list": {"i": ["1", "1", "1", "1"]}}, "num_args": {"i": "2"}, "fused_ops": {"list": {"s": ["Qmlhc0FkZA==", "UHJlbHU="]}}, "T": {"type": "DT_HALF"}, "explicit_paddings": {"list": {}}, "dilations": {"list": {"i": ["1", "1", "1", "1"]}}}}, {"name": "StatefulPartitionedCall/se_mobilefacenet/model/stack5_block1_3_conv/Conv2D", "op": "Conv2D", "input": ["StatefulPartitionedCall/se_mobilefacenet/model/stack5_block1_2_depthwise/depthwise", "StatefulPartitionedCall/se_mobilefacenet/model/stack5_block1_3_conv/Conv2D_weights"], "device": "/device:CPU:0", "attr": {"padding": {"s": "U0FNRQ=="}, "data_format": {"s": "TkhXQw=="}, "strides": {"list": {"i": ["1", "1", "1", "1"]}}, "use_cudnn_on_gpu": {"b": true}, "T": {"type": "DT_HALF"}, "explicit_paddings": {"list": {}}, "dilations": {"list": {"i": ["1", "1", "1", "1"]}}}}, {"name": "StatefulPartitionedCall/se_mobilefacenet/model/stack5_block1_3_bn/FusedBatchNormV3", "op": "BiasAdd", "input": ["StatefulPartitionedCall/se_mobilefacenet/model/stack5_block1_3_conv/Conv2D", "StatefulPartitionedCall/se_mobilefacenet/model/stack5_block1_3_conv/Conv2D_bn_offset"], "attr": {"data_format": {"s": "TkhXQw=="}, "T": {"type": "DT_HALF"}}}, {"name": "StatefulPartitionedCall/se_mobilefacenet/model/global_average_pooling2d_13/Mean", "op": "Mean", "input": ["StatefulPartitionedCall/se_mobilefacenet/model/stack5_block1_3_bn/FusedBatchNormV3", "StatefulPartitionedCall/se_mobilefacenet/model/global_average_pooling2d_13/Mean/reduction_indices"], "attr": {"Tidx": {"type": "DT_INT32"}, "T": {"type": "DT_HALF"}, "keep_dims": {"b": true}}}, {"name": "StatefulPartitionedCall/se_mobilefacenet/model/stack5_block1_se_1_conv/Conv2D", "op": "Conv2D", "input": ["StatefulPartitionedCall/se_mobilefacenet/model/global_average_pooling2d_13/Mean", "StatefulPartitionedCall/se_mobilefacenet/model/stack5_block1_se_1_conv/Conv2D/Cast"], "device": "/device:CPU:0", "attr": {"padding": {"s": "VkFMSUQ="}, "data_format": {"s": "TkhXQw=="}, "use_cudnn_on_gpu": {"b": true}, "strides": {"list": {"i": ["1", "1", "1", "1"]}}, "T": {"type": "DT_HALF"}, "explicit_paddings": {"list": {}}, "dilations": {"list": {"i": ["1", "1", "1", "1"]}}}}, {"name": "StatefulPartitionedCall/se_mobilefacenet/model/stack5_block1_se_1_conv/BiasAdd", "op": "BiasAdd", "input": ["StatefulPartitionedCall/se_mobilefacenet/model/stack5_block1_se_1_conv/Conv2D", "StatefulPartitionedCall/se_mobilefacenet/model/stack5_block1_se_1_conv/BiasAdd/Cast"], "attr": {"data_format": {"s": "TkhXQw=="}, "T": {"type": "DT_HALF"}}}, {"name": "StatefulPartitionedCall/se_mobilefacenet/model/stack5_block1_se_prelu/Relu", "op": "Prelu", "input": ["StatefulPartitionedCall/se_mobilefacenet/model/stack5_block1_se_1_conv/BiasAdd", "StatefulPartitionedCall/se_mobilefacenet/model/stack5_block1_se_prelu/Neg"]}, {"name": "StatefulPartitionedCall/se_mobilefacenet/model/stack5_block1_se_2_conv/Conv2D", "op": "Conv2D", "input": ["StatefulPartitionedCall/se_mobilefacenet/model/stack5_block1_se_prelu/Relu", "StatefulPartitionedCall/se_mobilefacenet/model/stack5_block1_se_2_conv/Conv2D/Cast"], "device": "/device:CPU:0", "attr": {"padding": {"s": "VkFMSUQ="}, "data_format": {"s": "TkhXQw=="}, "strides": {"list": {"i": ["1", "1", "1", "1"]}}, "use_cudnn_on_gpu": {"b": true}, "T": {"type": "DT_HALF"}, "explicit_paddings": {"list": {}}, "dilations": {"list": {"i": ["1", "1", "1", "1"]}}}}, {"name": "StatefulPartitionedCall/se_mobilefacenet/model/stack5_block1_se_2_conv/BiasAdd", "op": "BiasAdd", "input": ["StatefulPartitionedCall/se_mobilefacenet/model/stack5_block1_se_2_conv/Conv2D", "StatefulPartitionedCall/se_mobilefacenet/model/stack5_block1_se_2_conv/BiasAdd/Cast"], "attr": {"data_format": {"s": "TkhXQw=="}, "T": {"type": "DT_HALF"}}}, {"name": "StatefulPartitionedCall/se_mobilefacenet/model/activation_13/Sigmoid", "op": "Sigmoid", "input": ["StatefulPartitionedCall/se_mobilefacenet/model/stack5_block1_se_2_conv/BiasAdd"], "attr": {"T": {"type": "DT_HALF"}}}, {"name": "StatefulPartitionedCall/se_mobilefacenet/model/stack5_block1_se_out/mul", "op": "Mul", "input": ["StatefulPartitionedCall/se_mobilefacenet/model/stack5_block1_3_bn/FusedBatchNormV3", "StatefulPartitionedCall/se_mobilefacenet/model/activation_13/Sigmoid"], "attr": {"T": {"type": "DT_HALF"}}}, {"name": "StatefulPartitionedCall/se_mobilefacenet/model/stack5_block2_1_conv/Conv2D", "op": "Conv2D", "input": ["StatefulPartitionedCall/se_mobilefacenet/model/stack5_block1_se_out/mul", "StatefulPartitionedCall/se_mobilefacenet/model/stack5_block2_1_conv/Conv2D_weights"], "device": "/device:CPU:0", "attr": {"padding": {"s": "U0FNRQ=="}, "data_format": {"s": "TkhXQw=="}, "strides": {"list": {"i": ["1", "1", "1", "1"]}}, "use_cudnn_on_gpu": {"b": true}, "T": {"type": "DT_HALF"}, "explicit_paddings": {"list": {}}, "dilations": {"list": {"i": ["1", "1", "1", "1"]}}}}, {"name": "StatefulPartitionedCall/se_mobilefacenet/model/stack5_block2_1_bn/FusedBatchNormV3", "op": "BiasAdd", "input": ["StatefulPartitionedCall/se_mobilefacenet/model/stack5_block2_1_conv/Conv2D", "StatefulPartitionedCall/se_mobilefacenet/model/stack5_block2_…
tefulPartitionedCall/se_mobilefacenet/model/stack3_block1_2_prelu/Neg", "shape": [1, 1, 256], "dtype": "float32", "quantization": {"dtype": "uint8", "min": -1.6836511948529411, "scale": 0.016034773284313724, "original_dtype": "float32"}}, {"name": "StatefulPartitionedCall/se_mobilefacenet/model/stack3_block1_1_prelu/Neg", "shape": [1, 1, 256], "dtype": "float32", "quantization": {"dtype": "uint8", "min": -1.8374655330882352, "scale": 0.020645680147058823, "original_dtype": "float32"}}, {"name": "StatefulPartitionedCall/se_mobilefacenet/model/stack2_block1_se_prelu/Neg", "shape": [1, 1, 8], "dtype": "float32", "quantization": {"dtype": "uint8", "min": 0.93310546875, "scale": 0.005777037377450981, "original_dtype": "float32"}}, {"name": "StatefulPartitionedCall/se_mobilefacenet/model/stack2_block1_2_prelu/Neg", "shape": [1, 1, 256], "dtype": "float32", "quantization": {"dtype": "uint8", "min": -1.7696806066176471, "scale": 0.01462545955882353, "original_dtype": "float32"}}, {"name": "StatefulPartitionedCall/se_mobilefacenet/model/stack2_block1_1_prelu/Neg", "shape": [1, 1, 256], "dtype": "float32", "quantization": {"dtype": "uint8", "min": -2.4044117647058822, "scale": 0.03005514705882353, "original_dtype": "float32"}}, {"name": "StatefulPartitionedCall/se_mobilefacenet/model/stack1_block5_se_prelu/Neg", "shape": [1, 1, 4], "dtype": "float32", "quantization": {"dtype": "uint8", "min": 0.85595703125, "scale": 0.00636297487745098, "original_dtype": "float32"}}, {"name": "StatefulPartitionedCall/se_mobilefacenet/model/stack1_block5_2_prelu/Neg", "shape": [1, 1, 128], "dtype": "float32", "quantization": {"dtype": "uint8", "min": -1.9378063725490198, "scale": 0.015502450980392157, "original_dtype": "float32"}}, {"name": "StatefulPartitionedCall/se_mobilefacenet/model/stack1_block5_1_prelu/Neg", "shape": [1, 1, 128], "dtype": "float32", "quantization": {"dtype": "uint8", "min": -3.4637408088235295, "scale": 0.025099571078431374, "original_dtype": "float32"}}, {"name": "StatefulPartitionedCall/se_mobilefacenet/model/stack1_block4_se_prelu/Neg", "shape": [1, 1, 4], "dtype": "float32", "quantization": {"dtype": "uint8", "min": 0.26025390625, "scale": 0.008369715073529412, "original_dtype": "float32"}}, {"name": "StatefulPartitionedCall/se_mobilefacenet/model/stack1_block4_2_prelu/Neg", "shape": [1, 1, 128], "dtype": "float32", "quantization": {"dtype": "uint8", "min": -2.4173483455882354, "scale": 0.018175551470588237, "original_dtype": "float32"}}, {"name": "StatefulPartitionedCall/se_mobilefacenet/model/stack1_block4_1_prelu/Neg", "shape": [1, 1, 128], "dtype": "float32", "quantization": {"dtype": "uint8", "min": -1.7448682598039214, "scale": 0.01600796568627451, "original_dtype": "float32"}}, {"name": "StatefulPartitionedCall/se_mobilefacenet/model/stack1_block3_se_prelu/Neg", "shape": [1, 1, 4], "dtype": "float32", "quantization": {"dtype": "uint8", "min": 1.0, "scale": 0.005284926470588236, "original_dtype": "float32"}}, {"name": "StatefulPartitionedCall/se_mobilefacenet/model/stack1_block3_2_prelu/Neg", "shape": [1, 1, 128], "dtype": "float32", "quantization": {"dtype": "uint8", "min": -2.2602213541666667, "scale": 0.015169270833333333, "original_dtype": "float32"}}, {"name": "StatefulPartitionedCall/se_mobilefacenet/model/stack1_block3_1_prelu/Neg", "shape": [1, 1, 128], "dtype": "float32", "quantization": {"dtype": "uint8", "min": -2.765625, "scale": 0.0234375, "original_dtype": "float32"}}, {"name": "StatefulPartitionedCall/se_mobilefacenet/model/stack1_block2_se_prelu/Neg", "shape": [1, 1, 4], "dtype": "float32", "quantization": {"dtype": "uint8", "min": 0.79931640625, "scale": 0.004333256740196079, "original_dtype": "float32"}}, {"name": "StatefulPartitionedCall/se_mobilefacenet/model/stack1_block2_2_prelu/Neg", "shape": [1, 1, 128], "dtype": "float32", "quantization": {"dtype": "uint8", "min": -2.663871017156863, "scale": 0.020029105392156864, "original_dtype": "float32"}}, {"name": "StatefulPartitionedCall/se_mobilefacenet/model/stack1_block2_1_prelu/Neg", "shape": [1, 1, 128], "dtype": "float32", "quantization": {"dtype": "uint8", "min": -4.052182904411764, "scale": 0.027565870098039215, "original_dtype": "float32"}}, {"name": "StatefulPartitionedCall/se_mobilefacenet/model/stack1_block1_se_prelu/Neg", "shape": [1, 1, 4], "dtype": "float32", "quantization": {"dtype": "uint8", "min": 0.478515625, "scale": 0.0005495557598039216, "original_dtype": "float32"}}, {"name": "StatefulPartitionedCall/se_mobilefacenet/model/stack1_block1_2_prelu/Neg", "shape": [1, 1, 128], "dtype": "float32", "quantization": {"dtype": "uint8", "min": -2.416544117647059, "scale": 0.021576286764705882, "original_dtype": "float32"}}, {"name": "StatefulPartitionedCall/se_mobilefacenet/model/stack1_block1_1_prelu/Neg", "shape": [1, 1, 128], "dtype": "float32", "quantization": {"dtype": "uint8", "min": -3.3046875000000004, "scale": 0.03239889705882353, "original_dtype": "float32"}}, {"name": "StatefulPartitionedCall/se_mobilefacenet/model/stem_2_prelu/Neg", "shape": [1, 1, 64], "dtype": "float32", "quantization": {"dtype": "uint8", "min": -1.9921875, "scale": 0.022135416666666668, "original_dtype": "float32"}}, {"name": "StatefulPartitionedCall/se_mobilefacenet/model/stem_1_prelu/Neg", "shape": [1, 1, 64], "dtype": "float32", "quantization": {"dtype": "uint8", "min": -2.1529986213235297, "scale": 0.01618795955882353, "original_dtype": "float32"}}, {"name": "StatefulPartitionedCall/se_mobilefacenet/model/stem_2_separable/separable_conv2d/Cast", "shape": [3, 3, 64, 1], "dtype": "float32", "quantization": {"dtype": "uint8", "min": -1.0176259957107843, "scale": 0.006481694240196079, "original_dtype": "float32"}}, {"name": "StatefulPartitionedCall/se_mobilefacenet/model/global_average_pooling2d/Mean/reduction_indices", "shape": [2], "dtype": "int32"}, {"name": "StatefulPartitionedCall/se_mobilefacenet/model/stack1_block1_se_1_conv/Conv2D/Cast", "shape": [1, 1, 64, 4], "dtype": "float32", "quantization": {"dtype": "uint8", "min": -0.2662090226715686, "scale": 0.003973268995098039, "original_dtype": "float32"}}, {"name": "StatefulPartitionedCall/se_mobilefacenet/model/stack1_block1_se_1_conv/BiasAdd/Cast", "shape": [4], "dtype": "float32", "quantization": {"dtype": "uint8", "min": -0.5322303921568627, "scale": 0.005269607843137255, "original_dtype": "float32"}}, {"name": "StatefulPartitionedCall/se_mobilefacenet/model/stack1_block1_se_2_conv/Conv2D/Cast", "shape": [1, 1, 4, 64], "dtype": "float32", "quantization": {"dtype": "uint8", "min": -0.5777611825980393, "scale": 0.004040287990196079, "original_dtype": "float32"}}, {"name": "StatefulPartitionedCall/se_mobilefacenet/model/stack1_block1_se_2_conv/BiasAdd/Cast", "shape": [64], "dtype": "float32", "quantization": {"dtype": "uint8", "min": -4.0683823529411764, "scale": 0.02118949142156863, "original_dtype": "float32"}}, {"name": "StatefulPartitionedCall/se_mobilefacenet/model/global_average_pooling2d_1/Mean/reduction_indices", "shape": [2], "dtype": "int32"}, {"name": "StatefulPartitionedCall/se_mobilefacenet/model/stack1_block2_se_1_conv/Conv2D/Cast", "shape": [1, 1, 64, 4], "dtype": "float32", "quantization": {"dtype": "uint8", "min": -0.6560872395833334, "scale": 0.004524739583333334, "original_dtype": "float32"}}, {"name": "StatefulPartitionedCall/se_mobilefacenet/model/stack1_block2_se_1_conv/BiasAdd/Cast", "shape": [4], "dtype": "float32", "quantization": {"dtype": "uint8", "min": -0.24790326286764705, "scale": 0.002360983455882353, "original_dtype": "float32"}}, {"name": "StatefulPartitionedCall/se_mobilefacenet/model/stack1_block2_se_2_conv/Conv2D/Cast", "shape": [1, 1, 4, 64], "dtype": "float32", "quantization": {"dtype": "uint8", "min": -0.4092218137254902, "scale": 0.002765012254901961, "original_dtype": "float32"}}, {"name": "StatefulPartitionedCall/se_mobilefacenet/model/stack1_block2_se_2_conv/BiasAdd/Cast", "shape": [64], "dtype": "float32", "quantization": {"dtype": "uint8", "min": -4.453406479779412, "scale": 0.020908011642156863, "original_dtype": "float32"}}, {"name": "StatefulPartitionedCall/se_mobilefacenet/model/global_average_pooling2d_2/Mean/reduction_indices", "shape": [2], "dtype": "int32"}, {"name": "StatefulPartitionedCall/se_mobilefacenet/model/stack1_block3_se_1_conv/Conv2D/Cast", "shape": [1, 1, 64, 4], "dtype": "float32", "quantization": {"dtype": "uint8", "min": -0.736764705882353, "scale": 0.005755974264705883, "original_dtype": "float32"}}, {"name": "StatefulPartitionedCall/se_mobilefacenet/model/stack1_block3_se_1_conv/BiasAdd/Cast", "shape": [4], "dtype": "float32", "quantization": {"dtype": "uint8", "min": -0.9498003791360293, "scale": 0.00458840762867647, "original_dtype": "float32"}}, {"name": "StatefulPartitionedCall/se_mobilefacenet/model/stack1_block3_se_2_conv/Conv2D/Cast", "shape": [1, 1, 4, 64], "dtype": "float32", "quantization": {"dtype": "uint8", "min": -0.5772346047794118, "scale": 0.004275811887254902, "original_dtype": "float32"}}, {"name": "StatefulPartitionedCall/se_mobilefacenet/model/stack1_block3_se_2_conv/BiasAdd/Cast", "shape": [64], "dtype": "float32", "quantization": {"dtype": "uint8", "min": -4.520607383578431, "scale": 0.018914675245098038, "original_dtype": "float32"}}, {"name": "StatefulPartitionedCall/se_mobilefacenet/model/global_average_pooling2d_3/Mean/reduction_indices", "shape": [2], "dtype": "int32"}, {"name": "StatefulPartitionedCall/se_mobilefacenet/model/stack1_block4_se_1_conv/Conv2D/Cast", "shape": [1, 1, 64, 4], "dtype": "float32", "quantization": {"dtype": "uint8", "min": -0.2847244561887255, "scale": 0.0034304151348039215, "original_dtype": "float32"}}, {"name": "StatefulPartitionedCall/se_mobilefacenet/model/stack1_block4_se_1_conv/BiasAdd/Cast", "shape": [4], "dtype": "float32", "quantization": {"dtype": "uint8", "min": -0.33154296875, "scale": 0.0012468225815716913, "original_dtype": "float32"}}, {"name": "StatefulPartitionedCall/se_mobilefacenet/model/stack1_block4_se_2_conv/Conv2D/Cast", "shape": [1, 1, 4, 64], "dtype": "float32", "quantization": {"dtype": "uint8", "min": -0.6763671875, "scale": 0.0033155254289215686, "original_dtype": "float32"}}, {"name": "StatefulPartitionedCall/se_mobilefacenet/model/stack1_block4_se_2_conv/BiasAdd/Cast", "shape": [64], "dtype": "float32", "quantization": {"dtype": "uint8", "min": -1.87109375, "scale": 0.007243616440716911, "original_dtype": "float32"}}, {"name": "StatefulPartitionedCall/se_mobilefacenet/model/global_average_pooling2d_4/Mean/reduction_indices", "shape": [2], "dtype": "int32"}, {"name": "StatefulPartitionedCall/se_mobilefacenet/model/stack1_block5_se_1_conv/Conv2D/Cast", "shape": [1, 1, 64, 4], "dtype": "float32", "quantization": {"dtype": "uint8", "min": -0.24545419730392157, "scale": 0.002293964460784314, "original_dtype": "float32"}}, {"name": "StatefulPartitionedCall/se_mobilefacenet/model/stack1_block5_se_1_conv/BiasAdd/Cast", "shape": [4], "dtype": "float32", "quantization": {"dtype": "uint8", "min": -0.3590169270833333, "scale": 0.0021891276041666667, "original_dtype": "float32"}}, {"name": "StatefulPartitionedCall/se_mobilefacenet/model/stack1_block5_se_2_conv/Conv2D/Cast", "shape": [1, 1, 4, 64], "dtype": "float32", "quantization": {"dtype": "uint8", "min": -0.2912454044117647, "scale": 0.002800436580882353, "original_dtype": "float32"}}, {"name": "StatefulPartitionedCall/se_mobilefacenet/model/stack1_block5_se_2_conv/BiasAdd/Cast", "shape": [64], "dtype": "float32", "quantization": {"dtype": "uint8", "min": -1.7254365808823529, "scale": 0.00942861519607843, "original_dtype": "float32"}}, {"name": "StatefulPartitionedCall/se_mobilefacenet/model/global_average_pooling2d_5/Mean/reduction_indices", "shape": [2], "dtype": "int32"}, {"name": "StatefulPartitionedCall/se_mobilefacenet/model/stack2_block1_se_1_conv/Conv2D/Cast", "shape": [1, 1, 128, 8], "dtype": "float32", "quantization": {"dtype": "uint8", "min": -0.5997529871323529, "scale": 0.005711933210784313, "original_dtype": "float32"}}, {"name": "StatefulPartitionedCall/se_mobilefacenet/model/stack2_block1_se_1_conv/BiasAdd/Cast", "shape": [8], "dtype": "float32", "quantization": {"dtype": "uint8", "min": -0.5494772518382353, "scale": 0.004467294730392157, "original_dtype": "float32"}}, {"name": "StatefulPartitionedCall/se_mobilefacenet/model/stack2_block1_se_2_conv/Conv2D/Cast", "shape": [1, 1, 8, 128], "dtype": "float32", "quantization": {"dtype": "uint8", "min": -0.4922621783088235, "scale": 0.0036735983455882353, "original_dtype": "float32"}}, {"name": "StatefulPartitionedCall/se_mobilefacenet/model/stack2_block1_se_2_conv/BiasAdd/Cast", "shape": [128], "dtype": "float32", "quantization": {"dtype": "uint8", "min": -2.677864583333333, "scale": 0.023697916666666666, "original_dtype": "float32"}}, {"name": "StatefulPartitionedCall/se_mobilefacenet/model/global_average_pooling2d_6/Mean/reduction_indices", "shape": [2], "dtype": "int32"}, {"name": "StatefulPartitionedCall/se_mobilefacenet/model/stack3_block1_se_1_conv/Conv2D/Cast", "shape": [1, 1, 128, 8], "dtype": "float32", "quantization": {"dtype": "uint8", "min": -0.8637159160539215, "scale": 0.005171951593137255, "original_dtype": "float32"}}, {"name": "StatefulPartitionedCall/se_mobilefacenet/model/stack3_block1_se_1_conv/BiasAdd/Cast", "shape": [8], "dtype": "float32", "quantization": {"dtype": "uint8", "min": -0.22358254825367646, "scale": 0.002089556525735294, "original_dtype": "float32"}}, {"name": "StatefulPartitionedCall/se_mobilefacenet/model/stack3_block1_se_2_conv/Conv2D/Cast", "shape": [1, 1, 8, 128], "dtype": "float32", "quantization": {"dtype": "uint8", "min": -0.40715954350490197, "scale": 0.003540517769607843, "original_dtype": "float32"}}, {"name": "StatefulPartitionedCall/se_mobilefacenet/model/stack3_block1_se_2_conv/BiasAdd/Cast", "shape": [128], "dtype": "float32", "quantization": {"dtype": "uint8", "min": -3.8824908088235297, "scale": 0.023965992647058825, "original_dtype": "float32"}}, {"name": "StatefulPartitionedCall/se_mobilefacenet/model/global_average_pooling2d_7/Mean/reduction_indices", "shape": [2], "dtype": "int32"}, {"name": "StatefulPartitionedCall/se_mobilefacenet/model/stack3_block2_se_1_conv/Conv2D/Cast", "shape": [1, 1, 128, 8], "dtype": "float32", "quantization": {"dtype": "uint8", "min": -0.3056525735294117, "scale": 0.0021225873161764704, "original_dtype": "float32"}}, {"name": "StatefulPartitionedCall/se_mobilefacenet/model/stack3_block2_se_1_conv/BiasAdd/Cast", "shape": [8], "dtype": "float32", "quantization": {"dtype": "uint8", "min": -0.3276094324448529, "scale": 0.0020866842830882353, "original_dtype": "float32"}}, {"name": "StatefulPartitionedCall/se_mobilefacenet/model/stack3_block2_se_2_conv/Conv2D/Cast", "shape": [1, 1, 8, 128], "dtype": "float32", "quantization": {"dtype": "uint8", "min": -0.49658203125, "scale": 0.0032456341911764708, "original_dtype": "float32"}}, {"name": "StatefulPartitionedCall/se_mobilefacenet/model/stack3_block2_se_2_conv/BiasAdd/Cast", "shape": [128], "dtype": "float32", "quantization": {"dtype": "uint8", "min": -1.739312385110294, "scale": 0.008165785845588235, "original_dtype": "float32"}}, {"name": "StatefulPartitionedCall/se_mobilefacenet/model/global_average_pooling2d_8/Mean/reduction_indices", "shape": [2], "dtype": "int32"}, {"name": "StatefulPartitionedCall/se_mobilefacenet/model/stack3_block3_se_1_conv/Conv2D/Cast", "shape": [1, 1, 128, 8], "dtype": "float32", "quantization": {"dtype": "uint8", "min": -0.6031881893382354, "scale": 0.003723383884803922, "original_dtype": "float32"}}, {"name": "StatefulPartitionedCall/se_mobilefacenet/model/stack3_block3_se_1_conv/BiasAdd/Cast", "shape": [8], "dtype": "float32", "quantization": {"dtype": "uint8", "min": -0.7422363281250001, "scale": 0.004851217830882353, "original_dtype": "float32"}}, {"name": "StatefulPartitionedCall/se_mobilefacenet/model/stack3_block3_se_2_conv/Conv2D/Cast", "shape": [1, 1, 8, 128], "dtype": "float32", "quantization": {"dtype": "uint8", "min": -0.45279564950980394, "scale": 0.003651577818627451, "original_dtype": "float32"}}, {"name": "StatefulPartitionedCall/se_mobilefacenet/model/stack3_block3_se_2_conv/BiasAdd/Cast", "shape": [128], "dtype": "float32", "quantization": {"dtype": "uint8", "min": -3.0346966911764706, "scale": 0.01291360294117647, "original_dtype": "float32"}}, {"name": "StatefulPartitionedCall/se_mobilefacenet/model/global_average_pooling2d_9/Mean/reduction_indices", "shape": [2], "dtype": "int32"}, {"name": "StatefulPartitionedCall/se_mobilefacenet/model/stack3_block4_se_1_conv/Conv2D/Cast", "shape": [1, 1, 128, 8], "dtype": "float32", "quantization": {"dtype": "uint8", "min": -0.3073586856617647, "scale": 0.003415096507352941, "original_dtype": "float32"}}, {"name": "StatefulPartitionedCall/se_mobilefacenet/model/stack3_block4_se_1_conv/BiasAdd/Cast", "shape": [8], "dtype": "float32", "quantization": {"dtype": "uint8", "min": -0.06345214843750001, "scale": 0.0018662396599264707, "original_dtype": "float32"}}, {"name": "StatefulPartitionedCall/se_mobilefacenet/model/stack3_block4_se_2_conv/Conv2D/Cast", "shape": [1, 1, 8, 128], "dtype": "float32", "quantization": {"dtype": "uint8", "min": -0.3015462239583333, "scale": 0.003108723958333333, "original_dtype": "float32"}}, {"name": "StatefulPartitionedCall/se_mobilefacenet/model/stack3_block4_se_2_conv/BiasAdd/Cast", "shape": [128], "dtype": "float32", "quantization": {"dtype": "uint8", "min": -1.9869466145833334, "scale": 0.011100260416666667, "original_dtype": "float32"}}, {"name": "StatefulPartitionedCall/se_mobilefacenet/model/global_average_pooling2d_10/Mean/reduction_indices", "shape": [2], "dtype": "int32"}, {"name": "StatefulPartitionedCall/se_mobilefacenet/model/stack3_block5_se_1_conv/Conv2D/Cast", "shape": [1, 1, 128, 8], "dtype": "float32", "quantization": {"dtype": "uint8", "min": -0.32450214460784316, "scale": 0.003120212928921569, "original_dtype": "float32"}}, {"name": "StatefulPartitionedCall/se_mobilefacenet/model/stack3_block5_se_1_conv/BiasAdd/Cast", "shape": [8], "dtype": "float32", "quantization": {"dtype": "uint8", "min": -0.046796013327205885, "scale": 0.002339800666360294, "original_dtype": "float32"}}, {"name": "StatefulPartitionedCall/se_mobilefacenet/model/stack3_block5_se_2_conv/Conv2D/Cast", "shape": [1, 1, 8, 128], "dtype": "float32", "quantization": {"dtype": "uint8", "min": -0.29147518382352944, "scale": 0.003389246323529412, "original_dtype": "float32"}}, {"name": "StatefulPartitionedCall/se_mobilefacenet/model/stack3_block5_se_2_conv/BiasAdd/Cast", "shape": [128], "dtype": "float32", "quantization": {"dtype": "uint8", "min": -1.727205882352941, "scale": 0.008995863970588235, "original_dtype": "float32"}}, {"name": "StatefulPartitionedCall/se_mobilefacenet/model/global_average_pooling2d_11/Mean/reduction_indices", "shape": [2], "dtype": "int32"}, {"name": "StatefulPartitionedCall/se_mobilefacenet/model/stack3_block6_se_1_conv/Conv2D/Cast", "shape": [1, 1, 128, 8], "dtype": "float32", "quantization": {"dtype": "uint8", "min": -0.6411764705882353, "scale": 0.005009191176470589, "original_dtype": "float32"}}, {"name": "StatefulPartitionedCall/se_mobilefacenet/model/stack3_block6_se_1_conv/BiasAdd/Cast", "shape": [8], "dtype": "float32", "quantization": {"dtype": "uint8", "min": -0.793524050245098, "scale": 0.005472579656862745, "original_dtype": "float32"}}, {"name": "StatefulPartitionedCall/se_mobilefacenet/model/stack3_block6_se_2_conv/Conv2D/Cast", "shape": [1, 1, 8, 128], "dtype": "float32", "quantization": {"dtype": "uint8", "min": -0.265737974877451, "scale": 0.002483532475490196, "original_dtype": "float32"}}, {"name": "StatefulPartitionedCall/se_mobilefacenet/model/stack3_block6_se_2_conv/BiasAdd/Cast", "shape": [128], "dtype": "float32", "quantization": {"dtype": "uint8", "min": -3.062607230392157, "scale": 0.018121936274509805, "original_dtype": "float32"}}, {"name": "StatefulPartitionedCall/se_mobilefacenet/model/global_average_pooling2d_12/Mean/reduction_indices", "shape": [2], "dtype": "int32"}, {"name": "StatefulPartitionedCall/se_mobilefacenet/model/stack4_block1_se_1_conv/Conv2D/Cast", "shape": [1, 1, 128, 8], "dtype": "float32", "quantization": {"dtype": "uint8", "min": -0.6538871017156863, "scale": 0.005786611519607843, "original_dtype": "float32"}}, {"name": "StatefulPartitionedCall/se_mobilefacenet/model/stack4_block1_se_1_conv/BiasAdd/Cast", "shape": [8], "dtype": "float32", "quantization": {"dtype": "uint8", "min": -1.2849954044117646, "scale": 0.010198376225490196, "original_dtype": "float32"}}, {"name": "StatefulPartitionedCall/se_mobilefacenet/model/stack4_block1_se_2_conv/Conv2D/Cast", "shape": [1, 1, 8, 128], "dtype": "float32", "quantization": {"dtype": "uint8", "min": -0.4589058670343137, "scale": 0.0046827129289215685, "original_dtype": "float32"}}, {"name": "StatefulPartitionedCall/se_mobilefacenet/model/stack4_block1_se_2_conv/BiasAdd/Cast", "shape": [128], "dtype": "float32", "quantization": {"dtype": "uint8", "min": -2.4285232843137257, "scale": 0.01958486519607843, "original_dtype": "float32"}}, {"name": "StatefulPartitionedCall/se_mobilefacenet/model/global_average_pooling2d_13/Mean/reduction_indices", "shape": [2], "dtype": "int32"}, {"name": "StatefulPartitionedCall/se_mobilefacenet/model/stack5_block1_se_1_conv/Conv2D/Cast", "shape": [1, 1, 128, 8], "dtype": "float32", "quantization": {"dtype": "uint8", "min": -0.5605583639705882, "scale": 0.005778952205882353, "original_dtype": "float32"}}, {"name": "StatefulPartitionedCall/se_mobilefacenet/model/stack5_block1_se_1_conv/BiasAdd/Cast", "shape": [8], "dtype": "float32", "quantization": {"dtype": "uint8", "min": -0.5240502450980392, "scale": 0.004764093137254902, "original_dtype": "float32"}}, {"name": "StatefulPartitionedCall/se_mobilefacenet/model/stack5_block1_se_2_conv/Conv2D/Cast", "shape": [1, 1, 8, 128], "dtype": "float32", "quantization": {"dtype": "uint8", "min": -0.6641773897058824, "scale": 0.005399816176470588, "original_dtype": "float32"}}, {"name": "StatefulPartitionedCall/se_mobilefacenet/model/stack5_block1_se_2_conv/BiasAdd/Cast", "shape": [128], "dtype": "float32", "quantization": {"dtype": "uint8", "min": -3.7074448529411765, "scale": 0.02808670343137255, "original_dtype": "float32"}}, {"name": "StatefulPartitionedCall/se_mobilefacenet/model/global_average_pooling2d_14/Mean/reduction_indices", "shape": [2], "dtype": "int32"}, {"name": "StatefulPartitionedCall/se_mobilefacenet/model/stack5_block2_se_1_conv/Conv2D/Cast", "shape": [1, 1, 128, 8], "dtype": "float32", "quantization": {"dtype": "uint8", "min": -0.6977328431372549, "scale": 0.005912990196078431, "original_dtype": "float32"}}, {"name": "StatefulPartitionedCall/se_mobilefacenet/model/stack5_block2_se_1_conv/BiasAdd/Cast", "shape": [8], "dtype": "float32", "quantization": {"dtype": "uint8", "min": -0.5753963694852942, "scale": 0.00833907781862745, "original_dtype": "float32"}}, {"name": "StatefulPartitionedCall/se_mobilefacenet/model/stack5_block2_se_2_conv/Conv2D/Cast", "shape": [1, 1, 8, 128], "dtype": "float32", "quantization": {"dtype": "uint8", "min": -0.5081112132352942, "scale": 0.004032628676470589, "original_dtype": "float32"}}, {"name": "StatefulPartitionedCall/se_mobilefacenet/model/stack5_block2_se_2_conv/BiasAdd/Cast", "shape": [128], "dtype": "float32", "quantization": {"dtype": "uint8", "min": -3.1018382352941174, "scale": 0.021691176470588235, "original_dtype": "float32"}}, {"name": "StatefulPartitionedCall/se_mobilefacenet/model/GDC_conv/Conv2D/Cast", "shape": [1, 1, 512, 256], "dtype": "float32", "quantization": {"dtype": "uint8", "min": -0.2137805415134804, "scale": 0.001631912530637255, "original_dtype": "float32"}}, {"name": "StatefulPartitionedCall/se_mobilefacenet/model/GDC_flatten/Const", "shape": [2], "dtype": "int32"}, {"name": "StatefulPartitionedCall/se_mobilefacenet/model/pre_embedding/batchnorm/mul", "shape": [256], "dtype": "float32", "quantization": {"dtype": "uint8", "min": 1.2721420526504517, "scale": 0.0005149247599583047, "original_dtype": "float32"}}, {"name": "StatefulPartitionedCall/se_mobilefacenet/model/pre_embedding/batchnorm/sub", "shape": [256], "dtype": "float32", "quantization": {"dtype": "uint8", "min": -0.0467697983863307, "scale": 0.00036826612902622597, "original_dtype": "float32"}}, {"name": "StatefulPartitionedCall/se_mobilefacenet/model/stem_1_conv/Conv2D_weights", "shape": [3, 3, 3, 64], "dtype": "float32", "quantization": {"dtype": "uint8", "min": -4.32297794117647, "scale": 0.04002757352941176, "original_dtype": "float32"}}, {"name": "StatefulPartitionedCall/se_mobilefacenet/model/stem_1_conv/Conv2D_bn_offset", "shape": [64], "dtype": "float32", "quantization": {"dtype": "uint8", "min": -7.334606237972484, "scale": 0.04701670665366977, "original_dtype": "float32"}}, {"name": "StatefulPartitionedCall/se_mobilefacenet/model/stem_2_separable/separable_conv2d_weights", "shape": [1, 1, 64, 64], "dtype": "float32", "quantization": {"dtype": "uint8", "min": -10.514767156862744, "scale": 0.06697303921568627, "original_dtype": "float32"}}, {"name": "StatefulPartitionedCall/se_mobilefacenet/model/stem_2_separable/separable_conv2d_bn_offset", "shape": [64], "dtype": "float32", "quantization": {"dtype": "uint8", "min": -10.67383567679162, "scale": 0.05588395642299278, "original_dtype": "float32"}}, {"name": "StatefulPartitionedCall/se_mobilefacenet/model/stack1_block1_1_conv/Conv2D_weights", "shape": [1, 1, 64, 128], "dtype": "float32", "quantization": {"dtype": "uint8", "min": -1.0359547334558823, "scale": 0.0073471966911764705, "original_dtype": "float32"}}, {"name": "StatefulPartitionedCall/se_mobilefacenet/model/stack1_block1_1_conv/Conv2D_bn_offset", "shape": [128], "dtype": "float32", "quantization": {"dtype": "uint8", "min": -3.21045360845678, "scale": 0.028411093880148494, "original_dtype": "float32"}}, {"name": "StatefulPartitionedCall/se_mobilefacenet/model/stack1_block1_2_depthwise/depthwise_weights", "shape": [3, 3, 128, 1], "dtype": "float32", "quantization": {"dtype": "uint8", "min": -4.995036764705882, "scale": 0.04306066176470588, "original_dtype": "float32"}}, {"name": "StatefulPartitionedCall/se_mobilefacenet/model/stack1_block1_2_depthwise/depthwise_bn_offset", "shape": [128], "dtype": "float32", "quantization": {"dtype": "uint8", "min": -4.748289100796569, "scale": 0.042395438399969364, "original_dtype": "float32"}}, {"name": "StatefulPartitionedCall/se_mobilefacenet/model/stack1_block1_3_conv/Conv2D_weights", "shape": [1, 1, 128, 64], "dtype": "float32", "quantization": {"dtype": "uint8", "min": -3.1126838235294114, "scale": 0.018979779411764704, "original_dtype": "float32"}}, {"name": "StatefulPartitionedCall/se_mobilefacenet/model/stack1_block1_3_conv/Conv2D_bn_offset", "shape": [64], "dtype": "float32", "quantization": {"dtype": "uint8", "min": -4.59899923287186, "scale": 0.04465047798904718, "original_dtype": "float32"}}, {"name": "StatefulPartitionedCall/se_mobilefacenet/model/stack1_block2_1_conv/Conv2D_weights", "shape": [1, 1, 64, 128], "dtype": "float32", "quantization": {"dtype": "uint8", "min": -2.077734375, "scale": 0.012825520833333333, "original_dtype": "float32"}}, {"name": "StatefulPartitionedCall/se_mobilefacenet/model/stack1_block2_1_conv/Conv2D_bn_offset", "shape": [128], "dtype": "float32", "quantization": {"dtype": "uint8", "min": -2.801679454130285, "scale": 0.02501499512616326, "original_dtype": "float32"}}, {"name": "StatefulPartitionedCall/se_mobilefacenet/model/stack1_block2_2_depthwise/depthwise_weights", "shape": [3, 3, 128, 1], "dtype": "float32", "quantization": {"dtype": "uint8", "min": -3.412683823529412, "scale": 0.03630514705882353, "original_dtype": "float32"}}, {"name": "StatefulPartitionedCall/se_mobilefacenet/model/stack1_block2_2_depthwise/depthwise_bn_offset", "shape": [128], "dtype": "float32", "quantization": {"dtype": "uint8", "min": -6.922505150589288, "scale": 0.0429969264011757, "original_dtype": "float32"}}, {"name": "StatefulPartitionedCall/se_mobilefacenet/model/stack1_block2_3_conv/Conv2D_weights", "shape": [1, 1, 128, 64], "dtype": "float32", "quantization": {"dtype": "uint8", "min": -2.5582107843137254, "scale": 0.020465686274509804, "original_dtype": "float32"}}, {"name": "StatefulPartitionedCall/se_mobilefacenet/model/stack1_block2_3_conv/Conv2D_bn_offset", "shape": [64], "dtype": "float32", "quantization": {"dtype": "uint8", "min": -15.204787254333496, "scale": 0.08943992502549115, "original_dtype": "float32"}}, {"name": "StatefulPartitionedCall/se_mobilefacenet/model/stack1_block3_1_conv/Conv2D_weights", "shape": [1, 1, 64, 128], "dtype": "float32", "quantization": {"dtype": "uint8", "min": -1.6164790134803921, "scale": 0.01114813112745098, "original_dtype": "float32"}}, {"name": "StatefulPartitionedCall/se_mobilefacenet/model/stack1_block3_1_conv/Conv2D_bn_offset", "shape": [128], "dtype": "float32", "quantization": {"dtype": "uint8", "min": -1.9901026426577102, "scale": 0.017156057264290606, "original_dtype": "float32"}}, {"name": "StatefulPartitionedCall/se_mobilefacenet/model/stack1_block3_2_depthwise/depthwise_weights", "shape": [3, 3, 128, 1], "dtype": "float32", "quantization": {"dtype": "uint8", "min": -5.130330882352941, "scale": 0.047503063725490194, "original_dtype": "float32"}}, {"name": "StatefulPartitionedCall/se_mobilefacenet/model/stack1_block3_2_depthwise/depthwise_bn_offset", "shape": [128], "dtype": "float32", "quantization": {"dtype": "uint8", "min": -5.014892877316942, "scale": 0.06268616096646178, "original_dtype": "float32"}}, {"name": "StatefulPartitionedCall/se_mobilefacenet/model/stack1_block3_3_conv/Conv2D_weights", "shape": [1, 1, 128, 64], "dtype": "float32", "quantization": {"dtype": "uint8", "min": -3.372671568627451, "scale": 0.029074754901960785, "original_dtype": "float32"}}, {"name": "StatefulPartitionedCall/se_mobilefacenet/model/stack1_block3_3_conv/Conv2D_bn_offset", "shape": [64], "dtype": "float32", "quantization": {"dtype": "uint8", "min": -7.081399581011604, "scale": 0.0590116631750967, "original_dtype": "float32"}}, {"name": "StatefulPartitionedCall/se_mobilefacenet/model/stack1_block4_1_conv/Conv2D_weights", "shape": [1, 1, 64, 128], "dtype": "float32", "quantization": {"dtype": "uint8", "min": -1.5809972426470589, "scale": 0.01171109068627451, "original_dtype": "float32"}}, {"name": "StatefulPartitionedCall/se_mobilefacenet/model/stack1_block4_1_conv/Conv2D_bn_offset", "shape": [128], "dtype": "float32", "quantization": {"dtype": "uint8", "min": -3.0586554265489765, "scale": 0.023348514706480736, "original_dtype": "float32"}}, {"name": "StatefulPartitionedCall/se_mobilefacenet/model/stack1_block4_2_depthwise/depthwise_weights", "shape": [3, 3, 128, 1], "dtype": "float32", "quantization": {"dtype": "uint8", "min": -3.4557674632352944, "scale": 0.032912071078431374, "original_dtype": "float32"}}, {"name": "StatefulPartitionedCall/se_mobilefacenet/model/stack1_block4_2_depthwise/depthwise_bn_offset", "shape": [128], "dtype": "float32", "quantization": {"dtype": "uint8", "min": -4.363338947296143, "scale": 0.035474300384521484, "original_dtype": "float32"}}, {"name": "StatefulPartitionedCall/se_mobilefacenet/model/stack1_block4_3_conv/Conv2D_weights", "shape": [1, 1, 128, 64], "dtype": "float32", "quantization": {"dtype": "uint8", "min": -0.9590073529411764, "scale": 0.01331954656862745, "original_dtype": "float32"}}, {"name": "StatefulPartitionedCall/se_mobilefacenet/model/stack1_block4_3_conv/Conv2D_bn_offset", "shape": [64], "dtype": "float32", "quantization": {"dtype": "uint8", "min": -8.900971104117, "scale": 0.04811335731955135, "original_dtype": "float32"}}, {"name": "StatefulPartitionedCall/se_mobilefacenet/model/stack1_block5_1_conv/Conv2D_weights", "shape": [1, 1, 64, 128], "dtype": "float32", "quantization": {"dtype": "uint8", "min": -0.7305070465686274, "scale": 0.006701899509803921, "original_dtype": "float32"}}, {"name": "StatefulPartitionedCall/se_mobilefacenet/model/stack1_block5_1_conv/Conv2D_bn_offset", "shape": [128], "dtype": "float32", "quantization": {"dtype": "uint8", "min": -2.790583128087661, "scale": 0.02683253007776597, "original_dtype": "float32"}}, {"name": "StatefulPartitionedCall/se_mobilefacenet/model/stack1_block5_2_depthwise/depthwise_weights", "shape": [3, 3, 128, 1], "dtype": "float32", "quantization": {"dtype": "uint8", "min": -3.1814797794117644, "scale": 0.02973345588235294, "original_dtype": "float32"}}, {"name": "StatefulPartitionedCall/se_mobilefacenet/model/stack1_block5_2_depthwise/depthwise_bn_offset", "shape": [128], "dtype": "float32", "quantization": {"dtype": "uint8", "min": -5.553328912398395, "scale": 0.049144503649543314, "original_dtype": "float32"}}, {"name": "StatefulPartitionedCall/se_mobilefacenet/model/stack1_block5_3_conv/Conv2D_weights", "shape": [1, 1, 128, 64], "dtype": "float32", "quantization": {"dtype": "uint8", "min": -1.2456341911764706, "scale": 0.009581801470588236, "original_dtype": "float32"}}, {"name": "StatefulPartitionedCall/se_mobilefacenet/model/stack1_block5_3_conv/Conv2D_bn_offset", "shape": [64], "dtype": "float32", "quantization": {"dtype": "uint8", "min": -7.2023814332251455, "scale": 0.058083721235686656, "original_dtype": "float32"}}, {"name": "StatefulPartitionedCall/se_mobilefacenet/model/stack2_block1_1_conv/Conv2D_weights", "shape": [1, 1, 64, 256], "dtype": "float32", "quantization": {"dtype": "uint8", "min": -0.8539024203431371, "scale": 0.008055683210784313, "original_dtype": "float32"}}, {"name": "StatefulPartitionedCall/se_mobilefacenet/model/stack2_block1_1_conv/Conv2D_bn_offset", "shape": [256], "dtype": "float32", "quantization": {"dtype": "uint8", "min": -3.1615198920754826, "scale": 0.029273332334032245, "original_dtype": "float32"}}, {"name": "StatefulPartitionedCall/se_mobilefacenet/model/stack2_block1_2_depthwise/depthwise_weights", "shape": [3, 3, 256, 1], "dtype": "float32", "quantization": {"dtype": "uint8", "min": -2.1424632352941178, "scale": 0.02975643382352941, "original_dtype": "float32"}}, {"name": "StatefulPartitionedCall/se_mobilefacenet/model/stack2_block1_2_depthwise/depthwise_bn_offset", "shape": [256], "dtype": "float32", "quantization": {"dtype": "uint8", "min": -3.4723324270809397, "scale": 0.07548548754523782, "original_dtype": "float32"}}, {"name": "StatefulPartitionedCall/se_mobilefacenet/model/stack2_block1_3_conv/Conv2D_weights", "shape": [1, 1, 256, 128], "dtype": "float32", "quantization": {"dtype": "uint8", "min": -2.859244791666667, "scale": 0.024027267156862746, "original_dtype": "float32"}}, {"name": "StatefulPartitionedCall/se_mobilefacenet/model/stack2_block1_3_conv/Conv2D_bn_offset", "shape": [128], "dtype": "float32", "quantization": {"dtype": "uint8", "min": -3.29658823854783, "scale": 0.073257516412174, "original_dtype": "float32"}}, {"name": "StatefulPartitionedCall/se_mobilefacenet/model/stack3_block1_1_conv/Conv2D_weights", "shape": [1, 1, 128, 256], "dtype": "float32", "quantization": {"dtype": "uint8", "min": -0.8175819546568627, "scale": 0.0064376531862745095, "original_dtype": "float32"}}, {"name": "StatefulPartitionedCall/se_mobilefacenet/model/stack3_block1_1_conv/Conv2D_bn_offset", "shape": [256], "dtype": "float32", "quantization": {"dtype": "uint8", "min": -1.5431875219532087, "scale": 0.017339185639923694, "original_dtype": "float32"}}, {"name": "StatefulPartitionedCall/se_mobilefacenet/model/stack3_block1_2_depthwise/depthwise_weights", "shape": [3, 3, 256, 1], "dtype": "float32", "quantization": {"dtype": "uint8", "min": -3.7219362745098037, "scale": 0.030759803921568626, "original_dtype": "float32"}}, {"name": "StatefulPartitionedCall/se_mobilefacenet/model/stack3_block1_2_depthwise/depthwise_bn_offset", "shape": [256], "dtype": "float32", "quantization": {"dtype": "uint8", "min": -4.823875988230985, "scale": 0.0419467477237477, "original_dtype": "float32"}}, {"name": "StatefulPartitionedCall/se_mobilefacenet/model/stack3_block1_3_conv/Conv2D_weights", "shape": [1, 1, 256, 128], "dtype": "float32", "quantization": {"dtype": "uint8", "min": -2.4108072916666665, "scale": 0.020963541666666665, "original_dtype": "float32"}}, {"name": "StatefulPartitionedCall/se_mobilefacenet/model/stack3_block1_3_conv/Conv2D_bn_offset", "shape": [128], "dtype": "float32", "quantization": {"dtype": "uint8", "min": -8.07808250726438, "scale": 0.06621379104315066, "original_dtype": "float32"}}, {"name": "StatefulPartitionedCall/se_mobilefacenet/model/stack3_block2_1_conv/Conv2D_weights", "shape": [1, 1, 128, 256], "dtype": "float32", "quantization": {"dtype": "uint8", "min": -0.5215533088235293, "scale": 0.004457720588235294, "original_dtype": "float32"}}, {"name": "StatefulPartitionedCall/se_mobilefacenet/model/stack3_block2_1_conv/Conv2D_bn_offset", "shape": [256], "dtype": "float32", "quantization": {"dtype": "uint8", "min": -1.7534668431562537, "scale": 0.01243593505784577, "original_dtype": "float32"}}, {"name": "StatefulPartitionedCall/se_mobilefacenet/model/stack3_block2_2_depthwise/depthwise_weights", "shape": [3, 3, 256, 1], "dtype": "float32", "quantization": {"dtype": "uint8", "min": -12.9328125, "scale": 0.08452818627450981, "original_dtype": "float32"}}, {"name": "StatefulPartitionedCall/se_mobilefacenet/model/stack3_block2_2_depthwise/depthwise_bn_offset", "shape": [256], "dtype": "float32", "quantization": {"dtype": "uint8", "min": -4.716078460917753, "scale": 0.03655874775905235, "original_dtype": "float32"}}, {"name": "StatefulPartitionedCall/se_mobilefacenet/model/stack3_block2_3_conv/Conv2D_weights", "shape": [1, 1, 256, 128], "dtype": "float32", "quantization": {"dtype": "uint8", "min": -0.6472120098039216, "scale": 0.005177696078431372, "original_dtype": "float32"}}, {"name": "StatefulPartitionedCall/se_mobilefacenet/model/stack3_block2_3_conv/Conv2D_bn_offset", "shape": [128], "dtype": "float32", "quantization": {"dtype": "uint8", "min": -4.595882842120003, "scale": 0.03508307513068704, "original_dtype": "float32"}}, {"name": "StatefulPartitionedCall/se_mobilefacenet/model/stack3_block3_1_conv/Conv2D_weights", "shape": [1, 1, 128, 256], "dtype": "float32", "quantization": {"dtype": "uint8", "min": -0.6803193933823529, "scale": 0.0043610217524509805, "original_dtype": "float32"}}, {"name": "StatefulPartitionedCall/se_mobilefacenet/model/stack3_block3_1_conv/Conv2D_bn_offset", "shape": [256], "dtype": "float32", "quantization": {"dtype": "uint8", "min": -2.671982431411743, "scale": 0.01746393746020747, "original_dtype": "float32"}}, {"name": "StatefulPartitionedCall/se_mobilefacenet/model/stack3_block3_2_depthwise/depthwise_weights", "shape": [3, 3, 256, 1], "dtype": "float32", "quantization": {"dtype": "uint8", "min": -6.4311887254901965, "scale": 0.06243872549019608, "original_dtype": "float32"}}, {"name": "StatefulPartitionedCall/se_mobilefacenet/model/stack3_block3_2_depthwise/depthwise_bn_offset", "shape": [256], "dtype": "float32", "quantization": {"dtype": "uint8", "min": -3.784793486314661, "scale": 0.034097238615447396, "original_dtype": "float32"}}, {"name": "StatefulPartitionedCall/se_mobilefacenet/model/stack3_block3_3_conv/Conv2D_weights", "shape": [1, 1, 256, 128], "dtype": "float32", "quantization": {"dtype": "uint8", "min": -2.8227864583333333, "scale": 0.017317708333333334, "original_dtype": "float32"}}, {"name": "StatefulPartitionedCall/se_mobilefacenet/model/stack3_block3_3_conv/Conv2D_bn_offset", "shape": [128], "dtype": "float32", "quantization": {"dtype": "uint8", "min": -5.994340971404431, "scale": 0.054494008830949375, "original_dtype": "float32"}}, {"name": "StatefulPartitionedCall/se_mobilefacenet/model/stack3_block4_1_conv/Conv2D_weights", "shape": [1, 1, 128, 256], "dtype": "float32", "quantization": {"dtype": "uint8", "min": -0.525146484375, "scale": 0.0038899739583333334, "original_dtype": "float32"}}, {"name": "StatefulPartitionedCall/se_mobilefacenet/model/stack3_block4_1_conv/Conv2D_bn_offset", "shape": [256], "dtype": "float32", "quantization": {"dtype": "uint8", "min": -2.6029664357503255, "scale": 0.01913945908639945, "original_dtype": "float32"}}, {"name": "StatefulPartitionedCall/se_mobilefacenet/model/stack3_block4_2_depthwise/depthwise_weights", "shape": [3, 3, 256, 1], "dtype": "float32", "quantization": {"dtype": "uint8", "min": -5.7241727941176475, "scale": 0.058409926470588236, "original_dtype": "float32"}}, {"name": "StatefulPartitionedCall/se_mobilefacenet/model/stack3_block4_2_depthwise/depthwise_bn_offset", "shape": [256], "dtype": "float32", "quantization": {"dtype": "uint8", "min": -5.338748931884766, "scale": 0.044489574432373044, "original_dtype": "float32"}}, {"name": "StatefulPartitionedCall/se_mobilefacenet/model/stack3_block4_3_conv/Conv2D_weights", "shape": [1, 1, 256, 128], "dtype": "float32", "quantization": {"dtype": "uint8", "min": -1.4665326286764706, "scale": 0.012534466911764706, "original_dtype": "float32"}}, {"name": "StatefulPartitionedCall/se_mobilefacenet/model/stack3_block4_3_conv/Conv2D_bn_offset", "shape": [128], "dtype": "float32", "quantization": {"dtype": "uint8", "min": -6.4982818154727715, "scale": 0.043321878769818474, "original_dtype": "float32"}}, {"name": "StatefulPartitionedCall/se_mobilefacenet/model/stack3_block5_1_conv/Conv2D_weights", "shape": [1, 1, 128, 256], "dtype": "float32", "quantization": {"dtype": "uint8", "min": -0.3302734375, "scale": 0.0028971354166666668, "original_dtype": "float32"}}, {"name": "StatefulPartitionedCall/se_mobilefacenet/model/stack3_block5_1_conv/Conv2D_bn_offset", "shape": [256], "dtype": "float32", "quantization": {"dtype": "uint8", "min": -2.31613753823673, "scale": 0.017816442601821, "original_dtype": "float32"}}, {"name": "StatefulPartitionedCall/se_mobilefacenet/model/stack3_block5_2_depthwise/depthwise_weights", "shape": [3, 3, 256, 1], "dtype": "float32", "quantization": {"dtype": "uint8", "min": -5.470373774509804, "scale": 0.05819546568627451, "original_dtype": "float32"}}, {"name": "StatefulPartitionedCall/se_mobilefacenet/model/stack3_block5_2_depthwise/depthwise_bn_offset", "shape": [256], "dtype": "float32", "quantization": {"dtype": "uint8", "min": -4.882605197382908, "scale": 0.040021354076909085, "original_dtype": "float32"}}, {"name": "StatefulPartitionedCall/se_mobilefacenet/model/stack3_block5_3_conv/Conv2D_weights", "shape": [1, 1, 256, 128], "dtype": "float32", "quantization": {"dtype": "uint8", "min": -2.505660232843137, "scale": 0.01585860906862745, "original_dtype": "float32"}}, {"name": "StatefulPartitionedCall/se_mobilefacenet/model/stack3_block5_3_conv/Conv2D_bn_offset", "shape": [128], "dtype": "float32", "quantization": {"dtype": "uint8", "min": -5.343169447954963, "scale": 0.0556580150828642, "original_dtype": "float32"}}, {"name": "StatefulPartitionedCall/se_mobilefacenet/model/stack3_block6_1_conv/Conv2D_weights", "shape": [1, 1, 128, 256], "dtype": "float32", "quantization": {"dtype": "uint8", "min": -0.3322763480392157, "scale": 0.003048406862745098, "original_dtype": "float32"}}, {"name": "StatefulPartitionedCall/se_mobilefacenet/model/stack3_block6_1_conv/Conv2D_bn_offset", "shape": [256], "dtype": "float32", "quantization": {"dtype": "uint8", "min": -2.536697737375895, "scale": 0.015281311670939128, "original_dtype": "float32"}}, {"name": "StatefulPartitionedCall/se_mobilefacenet/model/stack3_block6_2_depthwise/depthwise_weights", "shape": [3, 3, 256, 1], "dtype": "float32", "quantization": {"dtype": "uint8", "min": -8.769454656862745, "scale": 0.06694240196078431, "original_dtype": "float32"}}, {"name": "StatefulPartitionedCall/se_mobilefacenet/model/stack3_block6_2_depthwise/depthwise_bn_offset", "shape": [256], "dtype": "float32", "quantization": {"dtype": "uint8", "min": -6.776007080078125, "scale": 0.049823581471162684, "original_dtype": "float32"}}, {"name": "StatefulPartitionedCall/se_mobilefacenet/model/stack3_block6_3_conv/Conv2D_weights", "shape": [1, 1, 256, 128], "dtype": "float32", "quantization": {"dtype": "uint8", "min": -2.523529411764706, "scale": 0.021568627450980392, "original_dtype": "float32"}}, {"name": "StatefulPartitionedCall/se_mobilefacenet/model/stack3_block6_3_conv/Conv2D_bn_offset", "shape": [128], "dtype": "float32", "quantization": {"dtype": "uint8", "min": -11.888596306595147, "scale": 0.07572354335410922, "original_dtype": "float32"}}, {"name": "StatefulPartitionedCall/se_mobilefacenet/model/stack4_block1_1_conv/Conv2D_weights", "shape": [1, 1, 128, 512], "dtype": "float32", "quantization": {"dtype": "uint8", "min": -0.6809914981617647, "scale": 0.00476217830882353, "original_dtype": "float32"}}, {"name": "StatefulPartitionedCall/se_mobilefacenet/model/stack4_block1_1_conv/Conv2D_bn_offset", "shape": [512], "dtype": "float32", "quantization": {"dtype": "uint8", "min": -2.5728670531628177, "scale": 0.014958529378853593, "original_dtype": "float32"}}, {"name": "StatefulPartitionedCall/se_mobilefacenet/model/stack4_block1_2_depthwise/depthwise_weights", "shape": [3, 3, 512, 1], "dtype": "float32", "quantization": {"dtype": "uint8", "min": -7.320588235294117, "scale": 0.0642156862745098, "original_dtype": "float32"}}, {"name": "StatefulPartitionedCall/se_mobilefacenet/model/stack4_block1_2_depthwise/depthwise_bn_offset", "shape": [512], "dtype": "float32", "quantization": {"dtype": "uint8", "min": -6.351562331704532, "scale": 0.047048609864478015, "original_dtype": "float32"}}, {"name": "StatefulPartitionedCall/se_mobilefacenet/model/stack4_block1_3_conv/Conv2D_weights", "shape": [1, 1, 512, 128], "dtype": "float32", "quantization": {"dtype": "uint8", "min": -1.2464460784313727, "scale": 0.011128982843137255, "original_dtype": "float32"}}, {"name": "StatefulPartitionedCall/se_mobilefacenet/model/stack4_block1_3_conv/Conv2D_bn_offset", "shape": [128], "dtype": "float32", "quantization": {"dtype": "uint8", "min": -4.6367959415211395, "scale": 0.028979974634507123, "original_dtype": "float32"}}, {"name": "StatefulPartitionedCall/se_mobilefacenet/model/stack5_block1_1_conv/Conv2D_weights", "shape": [1, 1, 128, 256], "dtype": "float32", "quantization": {"dtype": "uint8", "min": -1.0694048713235293, "scale": 0.007749310661764706, "original_dtype": "float32"}}, {"name": "StatefulPartitionedCall/se_mobilefacenet/model/stack5_block1_1_conv/Conv2D_bn_offset", "shape": [256], "dtype": "float32", "quantization": {"dtype": "uint8", "min": -1.870363207424388, "scale": 0.016123820753658518, "original_dtype": "float32"}}, {"name": "StatefulPartitionedCall/se_mobilefacenet/model/stack5_block1_2_depthwise/depthwise_weights", "shape": [3, 3, 256, 1], "dtype": "float32", "quantization": {"dtype": "uint8", "min": -5.522549019607844, "scale": 0.04215686274509804, "original_dtype": "float32"}}, {"name": "StatefulPartitionedCall/se_mobilefacenet/model/stack5_block1_2_depthwise/depthwise_bn_offset", "shape": [256], "dtype": "float32", "quantization": {"dtype": "uint8", "min": -8.2510422706604, "scale": 0.053928380853989544, "original_dtype": "float32"}}, {"name": "StatefulPartitionedCall/se_mobilefacenet/model/stack5_block1_3_conv/Conv2D_weights", "shape": [1, 1, 256, 128], "dtype": "float32", "quantization": {"dtype": "uint8", "min": -1.2120289522058822, "scale": 0.01035922181372549, "original_dtype": "float32"}}, {"name": "StatefulPartitionedCall/se_mobilefacenet/model/stack5_block1_3_conv/Conv2D_bn_offset", "shape": [128], "dtype": "float32", "quantization": {"dtype": "uint8", "min": -3.081936848397348, "scale": 0.02727377741944556, "original_dtype": "float32"}}, {"name": "StatefulPartitionedCall/se_mobilefacenet/model/stack5_block2_1_conv/Conv2D_weights", "shape": [1, 1, 128, 256], "dtype": "float32", "quantization": {"dtype": "uint8", "min": -0.6649356617647059, "scale": 0.005683210784313725, "original_dtype": "float32"}}, {"name": "StatefulPartitionedCall/se_mobilefacenet/model/stack5_block2_1_conv/Conv2D_bn_offset", "shape": [256], "dtype": "float32", "quantization": {"dtype": "uint8", "min": -3.902227137135524, "scale": 0.021440808445799583, "original_dtype": "float32"}}, {"name": "StatefulPartitionedCall/se_mobilefacenet/model/stack5_block2_2_depthwise/depthwise_weights", "shape": [3, 3, 256, 1], "dtype": "float32", "quantization": {"dtype": "uint8", "min": -5.247058823529412, "scale": 0.04099264705882353, "original_dtype": "float32"}}, {"name": "StatefulPartitionedCall/se_mobilefacenet/model/stack5_block2_2_depthwise/depthwise_bn_offset", "shape": [256], "dtype": "float32", "quantization": {"dtype": "uint8", "min": -11.735693093842153, "scale": 0.06783637626498354, "original_dtype": "float32"}}, {"name": "StatefulPartitionedCall/se_mobilefacenet/model/stack5_block2_3_conv/Conv2D_weights", "shape": [1, 1, 256, 128], "dtype": "float32", "quantization": {"dtype": "uint8", "min": -2.4592601102941174, "scale": 0.01877297794117647, "original_dtype": "float32"}}, {"name": "StatefulPartitionedCall/se_mobilefacenet/model/stack5_block2_3_conv/Conv2D_bn_offset", "shape": [128], "dtype": "float32", "quantization": {"dtype": "uint8", "min": -5.053453258439607, "scale": 0.050534532584396066, "original_dtype": "float32"}}, {"name": "StatefulPartitionedCall/se_mobilefacenet/model/pw_conv/Conv2D_weights", "shape": [1, 1, 128, 512], "dtype": "float32", "quantization": {"dtype": "uint8", "min": -0.7458333333333333, "scale": 0.005826822916666667, "original_dtype": "float32"}}, {"name": "StatefulPartitionedCall/se_mobilefacenet/model/pw_conv/Conv2D_bn_offset", "shape": [512], "dtype": "float32", "quantization": {"dtype": "uint8", "min": -3.5315113740808823, "scale": 0.027589932610006893, "original_dtype": "float32"}}, {"name": "StatefulPartitionedCall/se_mobilefacenet/model/GDC_dw/depthwise_weights", "shape": [7, 7, 512, 1], "dtype": "float32", "quantization": {"dtype": "uint8", "min": -13.022058823529411, "scale": 0.09865196078431372, "original_dtype": "float32"}}, {"name": "StatefulPartitionedCall/se_mobilefacenet/model/GDC_dw/depthwise_bn_offset", "shape": [512], "dtype": "float32", "quantization": {"dtype": "uint8", "min": -5.600571277094822, "scale": 0.040291879691329656, "original_dtype": "float32"}}]}]}